python_server/video_caption_generator/classifier/ensemble/step2A/step2A_3.pt (torch, 417647 bytes, 22 tensors)

conv_block.0.weight f4 [32, 1, 3, 3]
-0.1414518 -0.09967951 0.002290949 0.2859989 0.38503456 0.22787897 -0.282401 0.021318054
0.057536636 0.47534195 0.17271495 -0.040690873 0.16438314 -0.12653977 0.12720387 0.18976474
-0.0022399393 0.2633371 -0.27613086 -0.21598536 -0.042851966 0.20819743 -0.044367082 0.614248
-0.081744716 0.0777785 0.16437873 0.3070576 0.20782661 0.1534477 0.5544035 -0.015928166
0.29979286 0.11586698 -0.10151499 -0.1414943 0.06903904 0.106101535 0.22089125 -0.13838516
-0.3292321 -0.18846717 0.102266036 -0.22818296 0.28999382 0.019502208 0.13094676 0.23075092
0.42253485 -0.01744677 0.048201524 0.37899947 -0.054992262 0.04257371 0.21192344 -0.36926368
0.19471511 -0.3384008 -0.18674807 -0.120544456 -0.19780792 -0.27100083 -0.062557876 -0.02120999
0.20180511 0.06584242 -0.39201522 -0.07453887 -0.23067044 -0.1283472 0.11591566 -0.06827436
-0.16774987 -0.108128324 -0.058236256 0.13537154 -0.11150127 0.33742 -0.15549222 -0.51483345
-0.2390162 -0.2054256 0.2976607 0.29595137 0.09932814 0.23203579 0.25209156 0.011976299
0.324242 0.28925696 0.27044073 0.10064439 0.29628646 -0.32345495 -0.25016072 -0.19077891
-0.27260447 -0.40764838 0.18966773 -0.35880777 0.3496911 -0.24768999 0.10942417 -0.122835994
-0.25522295 -0.020683154 0.28048298 -0.14955328 -0.0057249838 -0.4100115 0.08279495 -0.046815317
-0.44688866 -0.028756106 0.20500498 -0.34148028 0.053257793 0.062226474 0.051817555 0.11942835
-0.0071183853 0.18971388 0.16736305 -0.17999673 0.1276603 0.17515115 0.13281491 -0.05592748
-0.3291937 -0.4429268 0.20219314 -0.016581682 -0.21786538 0.2760702 -0.015112049 -0.046763863
-0.55395776 0.17093325 -0.06743223 -0.6558046 -0.16110617 0.08791777 -0.54642534 0.027470445
0.16219477 -0.2279708 -0.31051686 -0.07723424 0.14841369 -0.23992214 -0.17108971 -0.05768312
-0.43815762 -0.3286707 -0.07067224 0.15609533 -0.6299201 0.17361337 -0.11231464 -0.4113766
-0.24682538 -0.03573421 -0.19112928 0.013107648 -0.15797062 -0.45977628 -0.08846304 0.13185866
-0.24157915 -0.071751475 -0.11817886 -0.060375012 0.1437013 0.2242263 0.061203852 0.2961222
0.31823927 -0.035067443 0.09791291 -0.06765864 -0.30636314 -0.4690209 0.31639013 0.15620479
-0.38367525 -0.26735982 0.1296995 0.020079898 -0.010072813 -0.38241184 0.12813468 -0.19970517
-0.29811832 -0.04936089 -0.021558776 -0.26978794 -0.1683484 0.19490242 0.016890515 0.34169206
-0.2795746 -0.359146 0.07901926 0.16996728 0.01554487 -0.13057783 -0.096460775 0.12967491
-0.013177285 0.23906022 0.27066514 0.3111694 0.15175122 -0.045073744 -0.102774315 -0.0312898
0.20668514 0.12052886 -0.054410692 -0.1870702 0.054602724 -0.07187435 -0.37216172 -0.15313683
0.2876908 -0.014401066 0.04974788 0.3621396 -0.24109313 0.13458797 0.005874768 -0.2383234
0.054618858 0.410188 -0.41675493 0.1707574 -0.2652626 -0.49950308 0.058210455 0.06574901
-0.62071246 -0.19207892 0.12701696 -0.20388424 0.18395558 -0.20588367 0.123805456 -0.35164237
0.23780616 0.15701142 -0.007676295 -0.012883099 -0.1115093 -0.17804421 0.14251158 -0.5577216
00000000: bed8 10be c524 ccbd bf23 163b 736e 923e
00000010: 4023 c53e 1b59 693e dd96 90be 33a3 ae3c
00000020: 89ab 6b3d 0560 f33e 30dc 303e 79ab 26bd
00000030: 0e54 283e a493 01be bb41 023e b051 423e
00000040: f2cb 12bb 1fd4 863e 0661 8dbe 442b 5dbe
00000050: 8b85 2fbd b531 553e 42ba 35bd 5b3f 1d3f
00000060: c669 a7bd 564a 9f3d e652 283e a736 9d3e
00000070: 80d0 543e 6521 1d3e 63ed 0d3f c97b 82bc
00000080: 737e 993e ab4b ed3d 17e7 cfbd e2e3 10be
00000090: 5764 8d3d c34b d93d 5131 623e d7b4 0dbe
000000a0: 1c91 a8be 8afd 40be db70 d13d cba8 69be
000000b0: 127a 943e 18c3 9f3c e816 063e f849 6c3e
000000c0: 7d56 d83e 87ec 8ebc f66e 453d 380c c23e
000000d0: 913f 61bd c561 2e3d 7502 593e 2110 bdbe
000000e0: 6663 473e df42 adbe e33a 3fbe 03e0 f6bd
000000f0: 298e 4abe 9fc0 8abe 581e 80bd 93c0 adbc
00000100: 00a6 4e3e 64d8 863d 38b6 c8be d6a7 98bd
00000110: df34 6cbe 736d 03be 3165 ed3d 6dd3 8bbd
00000120: 9fc6 2bbe 6272 ddbd 2489 6ebd d69e 0a3e
00000130: c75a e4bd 50c2 ac3e 5a39 1fbe 20cc 03bf
00000140: aac0 74be 175b 52be fc66 983e f086 973e
00000150: 8d6c cb3d ca9a 6d3e 2512 813e 3d38 443c
00000160: 0c03 a63e 7d19 943e 3577 8a3e a51e ce3d
00000170: dcb2 973e e39b a5be 1115 80be 8c5b 43be
00000180: d092 8bbe 4ab7 d0be 4238 423e a7b5 b7be
00000190: b60a b33e 72a2 7dbe c719 e03d 7091 fbbd
000001a0: 95ac 82be b86f a9bc 779b 8f3e 7f24 19be
000001b0: a598 bbbb 07ed d1be 6690 a93d 6bc1 3fbd
000001c0: 97ce e4be ed91 ebbc d3ec 513e 81d6 aebe
000001d0: d824 5a3d 30e1 7e3d a53e 543d da96 f43d
000001e0: 5841 e9bb 5b44 423e 3861 2b3e 1051 38be
000001f0: 62b9 023e d35a 333e a200 083e 3714 65bd
00000200: 148c a8be 4dc7 e2be b80b 4f3e 4fd6 87bc
00000210: 1a18 5fbe 1359 8d3e 8798 77bc 778b 3fbd
00000220: 2dd0 0dbf 2009 2f3e e919 8abd cfe2 27bf
00000230: 04f9 24be 3b0e b43d 88e2 0bbf b309 e13c
00000240: 6316 263e 2d71 69be 11fc 9ebe fc2c 9ebd
00000250: c2f9 173e 26ae 75be 2432 2fbe 2345 6cbd
00000260: 3256 e0be 8747 a8be 9bbc 90bd 74d7 1f3e
00000270: 7242 21bf b4c7 313e 3805 e6bd f49f d2be
00000280: cbbf 7cbe 095e 12bd 65b7 43be 76c1 563c
00000290: 0dc3 21be cc67 ebbe 1c2c b5bd f505 073e
000002a0: 8660 77be 70f2 92bd c207 f2bd ca4b 77bd
000002b0: 6f26 133e 949b 653e e4b0 7a3d 549d 973e
000002c0: 42f0 a23e e1a2 0fbd 9086 c83d 9d90 8abd
000002d0: a1db 9cbe 8223 f0be e3fd a13e 26f4 1f3e
000002e0: 1571 c4be 63e3 88be f2cf 043e 997e a43c
000002f0: 7108 25bc 7ccb c3be bd35 033e 837f 4cbe
00000300: f7a2 98be a52e 4abd 089c b0bc a521 8abe
00000310: 8663 2cbe 8094 473e fa5d 8a3c 43f2 ae3e
00000320: 6724 8fbe fce1 b7be dad4 a13d e70b 2e3e
00000330: e9af 7e3c 32b6 05be 3a8d c5bd 80c9 043e
00000340: 8ae5 57bc 34cc 743e 9f94 8a3e 9851 9f3e
00000350: ac64 1b3e 3f9f 38bd 577b d2bd bc29 00bd
00000360: 45a5 533e d6d7 f63d bfdd 5ebd 558f 3fbe
00000370: 1ba7 5f3d dc32 93bd fb8b bebe e7cf 1cbe
00000380: 354c 933e 73f2 6bbc 6fc4 4b3d 5d6a b93e
00000390: 1ee1 76be 6ed1 093e 2081 c03b 0d0b 74be
000003a0: 06b8 5f3d 2904 d23e e760 d5be 07db 2e3e
000003b0: 80d0 87be debe ffbe 166e 6e3d 6ba7 863d
000003c0: 03e7 1ebf 56b0 44be bc10 023e 08c7 50be
000003d0: da5e 3c3e 2bd3 52be b78d fd3d 780a b4be
000003e0: 7583 733e 9ac7 203e 6e89 fbbb a213 53bc
000003f0: fd5e e4bd 3951 36be 8eee 113e d8c6 0ebf

conv_block.0.bias f4 [32]
0.12880951 -0.1428278 0.3001452 -0.2507395 -0.020429127 -0.15037669 0.2685714 -0.030008567
-0.105373144 0.12683025 -0.28231835 -0.2687725 -0.036892667 -0.13412142 0.19452341 0.35015404
0.16327356 -0.1329735 -0.10088343 0.004123144 0.32838064 -0.37041613 0.19785003 -0.059888165
0.12867598 0.21220815 -0.24388239 0.27853408 -0.048993826 -0.19633085 0.018572977 0.25692537
00000000: a4e6 033e 7341 12be a2ac 993e ee60 80be
00000010: fc5a a7bc 59fc 19be 3182 893e 87d4 f5bc
00000020: e0cd d7bd cadf 013e 088c 90be 8d9c 89be
00000030: c41c 17bd 2057 09be 2531 473e 6447 b33e
00000040: 2f31 273e 352a 08be f99b cebd 701b 873b
00000050: 8221 a83e 2fa7 bdbe 3399 4a3e 4b4d 75bd
00000060: a3c3 033e 184d 593e 4ebc 79be 059c 8e3e
00000070: c0ad 48bd f40a 49be 5b26 983c b98b 833e

conv_block.1.weight f4 [32]
0.8452422 0.97757417 0.8323212 0.95599765 0.9062575 0.9308523 0.9983385 0.94343615
0.9736347 0.8695133 0.9991957 0.9530763 1.1111467 0.8281014 0.9726483 1.0802522
0.8980063 1.0359229 1.0002164 0.90163 1.0567427 0.9830479 1.0240959 0.8729464
0.9745589 0.80485016 1.0888364 0.9265902 1.0739229 0.80670995 0.8286127 0.8990964
00000000: cb61 583f 4d42 7a3f 0113 553f 43bc 743f
00000010: 7e00 683f 564c 6e3f 1d93 7f3f 0885 713f
00000020: 2040 793f 6c98 5e3f 4acb 7f3f cffc 733f
00000030: 0e3a 8e3f 74fe 533f 7bff 783f b445 8a3f
00000040: bee3 653f 1f99 843f 1707 803f 39d1 663f
00000050: 5843 873f 07a9 7b3f 9315 833f 6a79 5f3f
00000060: b17c 793f a90a 4e3f fe5e 8b3f 0435 6d3f
00000070: 4e76 893f 8b84 4e3f f61f 543f 2f2b 663f

conv_block.1.bias f4 [32]
-0.24339356 -0.09024232 -0.42776507 -0.022406286 -0.4313793 -0.064761735 -0.4567623 -0.30812505
-0.48169643 -0.13396022 -0.3162518 -0.07925435 -0.4825467 -0.14334966 -0.10118992 -0.17021419
-0.45864078 0.003308924 -0.08501449 -0.110623226 -0.16163269 -0.009706495 -0.11603407 -0.3390786
-0.4022853 -0.3587601 -0.1680946 -0.3092134 -0.07579668 -0.026795482 -0.19180556 -0.17986274
00000000: 293c 79be f7d0 b8bd 0604 dbbe 638d b7bc
00000010: bfdd dcbe cda1 84bd c0dc e9be 91c2 9dbe
00000020: eaa0 f6be de2c 09be c2eb a1be 1b50 a2bd
00000030: 5c10 f7be 41ca 12be a93c cfbd a14c 2ebe
00000040: f7d2 eabe 88da 583b 141c aebd 6e8e e2bd
00000050: 0a83 25be fe07 1fbc 45a3 edbd b69b adbe
00000060: 57f8 cdbe 67af b7be fe20 2cbe 3851 9ebe
00000070: 4a3b 9bbd 3382 dbbc ad68 44be f02d 38be

conv_block.1.running_mean f4 [32]
3.7420976 7.9990506 3.412208 9.408482 -1.1023436 8.065067 -7.642989 -4.0752263
-5.5575476 10.86341 -4.7017603 -3.264355 -6.505868 4.732218 -3.0878983 -11.46032
-7.811265 -10.412822 -8.164845 6.8008347 -5.3052278 -7.6336083 -1.4904946 6.403898
-1.2047061 3.5424232 -10.8695755 -0.19948152 -7.86469 4.8282394 2.9931781 -0.40218538
00000000: 877e 6f40 39f8 ff40 9e61 5a40 2489 1641
00000010: 9819 8dbf 840a 0141 5e93 f4c0 4168 82c0
00000020: 6ed7 b1c0 87d0 2d41 d274 96c0 31eb 50c0
00000030: 1230 d0c0 546e 9740 20a0 45c0 795d 37c1
00000040: e2f5 f9c0 eb9a 26c1 35a3 02c1 70a0 d940
00000050: 6dc4 a9c0 8546 f4c0 87c8 bebf bbec cc40
00000060: cf33 9abf 10b7 6240 c8e9 2dc1 e244 4cbe
00000070: 8aab fbc0 f080 9a40 3b90 3f40 3eeb cdbe

conv_block.1.running_var f4 [32]
141.42339 458.22205 340.1365 646.3002 145.24763 461.30917 519.8971 196.08667
349.27863 960.5161 328.20132 308.1387 762.5029 242.28725 256.73917 1734.8141
588.6144 1124.3529 516.9211 367.06674 421.07364 535.84106 105.77014 216.71725
106.102356 526.2265 1314.0231 30.018349 876.8335 194.09357 62.399185 41.945034
00000000: 636c 0d43 6c1c e543 7911 aa43 3693 2144
00000010: 653f 1143 93a7 e643 6af9 0144 3016 4443
00000020: aaa3 ae43 0821 7044 c519 a443 c111 9a43
00000030: 30a0 3e44 8949 7243 9d5e 8043 0dda d844
00000040: 5227 1344 4b8b 8c44 f33a 0144 8b88 b743
00000050: 6d89 d243 d4f5 0544 508a d342 9eb7 5843
00000060: 6834 d442 7f8e 0344 bd40 a444 9425 f041
00000070: 5835 5b44 f417 4243 c498 7942 b7c7 2742

conv_block.4.weight f4 [64, 32, 3, 3]
-0.03307152 -0.032010343 0.00018916762 0.08748222 0.032281812 -0.058030672 0.045759067 0.021653997
-0.011265854 0.15435039 0.008316307 -0.06569059 0.029518604 -0.07165567 -0.07134411 0.058416992
-0.062341183 -0.010609498 -0.07007818 -0.007105211 0.09143401 -0.08847371 -0.004092667 0.12178079
-0.059882693 -0.03959877 0.12683961 0.020060383 -0.007581777 -0.061341185 0.038605016 0.022491047
-0.011608623 0.058156043 0.058979373 0.011454098 -0.06993363 0.00565368 0.04703653 -0.04048018
-0.034766056 0.08702645 -0.06448986 -0.002333154 0.068597026 0.0006224044 -0.019051222 -0.035421073
0.083234936 -0.050949395 -0.036828753 0.104974315 -0.030130457 -0.076518856 -0.0005768867 -0.029640978
0.07935435 -0.005764338 -0.028397435 0.09845664 0.050719324 -0.07415193 0.08645935 -0.025185656
-0.13557176 -0.047637757 -0.05892627 -0.09413462 -0.036966264 -0.04622658 -0.14402321 0.008271441
-0.019440385 -0.06756587 0.02090131 0.058013372 -0.056695964 0.026743595 0.04746927 0.07877417
0.063635364 -0.044333644 -0.013979027 0.08714062 0.0030918072 0.01802658 -0.012962246 0.0304861
-0.031592365 0.052508976 -0.08028218 -0.050905537 0.11721047 -0.09693277 0.009006559 0.014629526
-0.08681172 0.00584506 0.10484762 -0.017805299 -0.05540446 0.009461406 0.042056672 -0.054368906
0.0069151986 -0.021248383 -0.014334788 0.025032232 -0.049735904 -0.05792859 -0.012855081 -0.010006642
-0.019739471 -0.013758059 -0.011259484 -0.05648977 0.024088355 -0.0033175496 -0.016311621 0.053684533
-0.02655458 -0.034533825 0.049650364 0.037806123 0.009734853 0.086547 0.014112223 -0.06336311
-0.07334711 0.05375428 -0.1773388 -0.096424714 -0.06673239 -0.12176673 -0.104107566 -0.06205424
-0.044831872 -0.006996312 -0.091917805 -0.029573755 0.012566864 -0.11452527 -0.030180126 0.041223563
-0.018747842 0.04825386 0.059974942 -0.07190909 -0.039385892 0.06325559 -0.059785355 -0.03606295
-0.008573982 -0.14597805 -0.061724443 -0.048773836 -0.110912755 -0.15231733 -0.080754474 -0.09547341
-0.029521398 -0.04262153 -0.1316673 -0.07637616 -0.034793597 -0.12840596 -0.13614343 0.023392051
-0.1223253 -0.17357342 -0.048943233 -0.008542261 0.031177504 -0.050293956 0.06535705 0.028991252
0.10110217 0.010429645 -0.048590157 0.05172701 -0.012632642 -0.03462667 0.016433781 -0.14366977
-0.122779526 -0.015159513 -0.07086299 -0.10638157 -0.0021791037 -0.15502396 -0.2042443 -0.09831361
-0.12745874 -0.07679922 -0.11028007 -0.14548957 -0.1177588 -0.037634104 -0.11150066 -0.093650736
-0.07324761 -0.007898132 -0.14478144 -0.0699588 -0.008068525 -0.0074229734 -0.049744584 -0.04109821
0.04217914 -0.033222005 -0.016504852 -0.00022804848 0.024120161 0.009735185 -0.092395216 -0.025728446
-0.082955666 -0.061984498 -0.03194775 -0.014365304 -0.031798054 0.0361804 -0.08675451 -0.04412306
0.119314566 -0.09032195 -0.000597355 0.08738127 -0.039425988 -0.045452442 0.044636767 -0.022246597
-0.0014250225 0.06049092 -0.12082853 -0.1849176 -0.067560025 -0.073714286 -0.11530121 -0.108539045
-0.117521174 -0.09511477 0.027517546 -0.0052471072 0.029792227 -0.044589944 0.037775576 -0.018533984
-0.020173507 0.07621075 0.11614199 0.032298807 -0.087496415 0.026328301 0.023956146 -0.09181794
00000000: 0176 07bd 471d 03bd 4c5b 4639 e129 b33d
00000010: ef39 043d 92b1 6dbd dc6d 3b3d b963 b13c
00000020: 6b94 38bc 070e 1e3e 1f41 083c ca88 86bd
00000030: 00d1 f13c 35c0 92bd dc1c 92bd a846 6f3d
00000040: 7859 7fbd 76d3 2dbc 2685 8fbd d4d2 e8bb
00000050: c141 bb3d b431 b5bd c71b 86bb 3568 f93d
00000060: 8e47 75bd 5232 22bd 3ee2 013e ac55 a43c
00000070: 8e70 f8bb e540 7bbd 4b20 1e3d 253f b83c
00000080: 1832 3ebc 0835 6e3d 5b94 713d f8a9 3b3c
00000090: 5d39 8fbd 8142 b93b 60a9 403d 8cce 25bd
000000a0: da66 0ebd ec3a b23d 4213 84bd d4e7 18bb
000000b0: 997c 8c3d da28 233a 4f11 9cbc b015 11bd
000000c0: 1477 aa3d 50b0 50bd bfd9 16bd c6fc d63d
000000d0: 26d4 f6bc ebb5 9cbd 363a 17ba a3d1 f2bc
000000e0: 8984 a23d c6e2 bcbb bda1 e8bc a3a3 c93d
000000f0: 11bf 4f3d f8dc 97bd 9a11 b13d 2652 cebc
00000100: 53d3 0abe cf1f 43bd ac5c 71bd a7c9 c0bd
00000110: f069 17bd 1558 3dbd d27a 13be f084 073c
00000120: 7141 9fbc fa5f 8abd 3939 ab3c 6e9f 6d3d
00000130: 073a 68bd 6215 db3c 236f 423d 5a54 a13d
00000140: 4253 823d 3297 35bd 4a08 65bc c876 b23d
00000150: eb9f 4a3b 7aac 933c 9a5f 54bc fcbd f93c
00000160: ff66 01bd a713 573d fc6a a4bd 5382 50bd
00000170: 0b0c f03d b084 c6bd 3f90 133c aeb0 6f3c
00000180: 58ca b1bd eb87 bf3b 59ba d63d 6bdc 91bc
00000190: c9ef 62bd 0304 1b3c 9e43 2c3d eeb1 5ebd
000001a0: e498 e23b 1711 aebc 75dc 6abc 6510 cd3c
000001b0: e0b7 4bbd 8746 6dbd 1e9e 52bc e6f2 23bc
000001c0: acb4 a1bc 7b69 61bc b379 38bc d161 67bd
000001d0: f154 c53c 3f6b 59bb f39f 85bc 50e4 5b3d
000001e0: fe88 d9bc 5773 0dbd 2e5e 4b3d 98da 1a3d
000001f0: ef7e 1f3c 8e3f b13d f436 673c 85c4 81bd
00000200: 0237 96bd 732d 5c3d 4d98 35be 527a c5bd
00000210: feaa 88bd d660 f9bd 5936 d5bd 962c 7ebd
00000220: a0a1 37bd 5241 e5bb 673f bcbd a944 f2bc
00000230: 3fe5 4d3c 3a8c eabd 503c f7bc 0ada 283d
00000240: 1395 99bc d7a5 453d 49a8 753d 1345 93bd
00000250: 1a53 21bd 268c 813d 7de1 74bd beb6 13bd
00000260: e379 0cbc 457b 15be c5d2 7cbd 13c7 47bd
00000270: 3a26 e3bd 13f9 1bbe 9a62 a5bd 9087 c3bd
00000280: dcd6 f1bc ea93 2ebd cbd3 06be 1b6b 9cbd
00000290: bb83 0ebd da7c 03be 2f69 0bbe b0a0 bf3c
000002a0: b085 fabd 3bbd 31be b378 48bd d7f4 0bbc
000002b0: f767 ff3c 0901 4ebd ebd9 853d 107f ed3c
000002c0: a80e cf3d 1ae1 2a3c 7906 47bd b4df 533d
000002d0: 24f9 4ebc b2d4 0dbd 23a0 863c 2b1e 13be
000002e0: d573 fbbd 9b5f 78bc 9e20 91bd 95de d9bd
000002f0: 4bcf 0ebb 9abe 1ebe 6b25 51be a558 c9bd
00000300: 8b84 02be e948 9dbd 84da e1bd 38fb 14be
00000310: 872b f1bd 3826 1abd 755a e4bd f5cb bfbd
00000320: d802 96bd 2b67 01bc 9641 14be 8f46 8fbd
00000330: d931 04bc 6a3c f3bb fac0 4bbd 9956 28bd
00000340: 09c4 2c3d cc13 08bd 2f35 87bc 4c20 6fb9
00000350: a597 c53c 5380 1f3c b439 bdbd 76c4 d2bc
00000360: a9e4 a9bd 75e3 7dbd a5db 02bd 745c 6bbc
00000370: ad3e 02bd e631 143d 59ac b1bd 62ba 34bd
00000380: 325b f43d b7fa b8bd d197 1cba f4f4 b23d
00000390: 257d 21bd 572c 3abd 0bd5 363d 7f3e b6bc
000003a0: d2c7 baba 54c5 773d f374 f7bd 0a5b 3dbe
000003b0: e95c 8abd 84f7 96bd 0a23 ecbd b849 debd
000003c0: f1ae f0bd 88cb c2bd 7a6c e13c edef abbb
000003d0: d40e f43c f2a3 36bd 90ba 1a3d 95d4 97bc
000003e0: e942 a5bc 6214 9c3d dadb ed3d c14b 043d
000003f0: 5231 b3bd 73ae d73c ae3f c43c 0b0b bcbd

conv_block.4.bias f4 [64]
0.010843144 -0.0028188431 -0.046443928 0.059940536 -0.0857239 -0.013580951 0.018449996 -0.13233596
-0.042620435 0.021299742 -0.026093096 0.00644012 -0.055160664 -0.104663335 0.09096793 0.023980774
0.08005555 -0.03748674 -0.029604118 -0.0081530865 0.054912705 -0.025970612 -0.06588356 0.10431176
-0.060307574 0.041424647 -0.042398952 0.1008478 -0.030143764 -0.01887064 0.08948908 -0.100395486
-0.0006927279 0.0032295678 -0.08310851 0.03853527 -0.18999575 -0.036378387 -0.0743485 0.0729133
-0.0047006235 0.03179815 0.03126834 -0.002326135 -0.009697311 -0.035730857 -0.0835685 0.033462018
0.043423936 -0.13246916 -0.017344322 -0.10985131 -0.046304725 0.15098974 -0.11318829 0.026604675
-0.020212037 -0.15431938 -0.064275034 0.025159728 -0.02496788 0.0028350824 -0.011427851 0.08342967
00000000: 71a7 313c 57bc 38bb fd3b 3ebd 3584 753d
00000010: 0390 afbd a382 5ebc 7224 973c 1483 07be
00000020: c492 2ebd cc7c ae3c 30c1 d5bc a407 d33b
00000030: 26f0 61bd bb59 d6bd 654d ba3d 5473 c43c
00000040: 2af4 a33d b28b 19bd 5684 f2bc 8694 05bc
00000050: 25ec 603d 52c0 d4bc f6ed 86bd 67a1 d53d
00000060: 1305 77bd e4ac 293d 86aa 2dbd 4b89 ce3d
00000070: 0ef0 f6bc 9a96 9abc 0d46 b73d 269c cdbd
00000080: 2f98 35ba 28a7 533b cb34 aabd 29d7 1d3d
00000090: 3f8e 42be 8101 15bd 0744 98bd 9153 953d
000000a0: b007 9abb c73e 023d 3b13 003d 1272 18bb
000000b0: 78e1 1ebc 855a 12bd f625 abbd 780f 093d
000000c0: 4cdd 313d ffa5 07be ae15 8ebc b9f9 e0bd
000000d0: 06aa 3dbd 0e9d 1a3e 43cf e7bd 0cf2 d93c
000000e0: b793 a5bc e605 1ebe a1a2 83bd c61b ce3c
000000f0: 7189 ccbc cacc 393b e23b 3bbc 2ddd aa3d

conv_block.5.weight f4 [64]
0.8612125 1.0021298 0.9030496 1.015759 1.0168811 0.97608155 0.88339335 0.9789756
0.9485512 1.0299536 0.94525737 0.97186077 1.024139 0.98015803 1.0187486 1.0404084
0.9909418 0.94551474 0.9716082 1.0607404 0.90086144 0.9922676 0.93429255 0.9863129
0.97724754 0.95422864 1.0719813 1.0135878 0.987959 0.91090834 0.9406247 0.95212334
0.9373456 0.95177543 0.98941207 0.9464115 0.94278276 1.0018873 1.0558648 1.2079397
0.9028307 0.9857078 1.1412587 1.0301094 1.044143 0.9061573 0.9963425 1.0202191
0.96999013 0.8379465 0.86875206 1.002201 0.90494394 0.96621144 0.8930104 0.9714519
0.9802603 1.0006087 0.9434923 1.0062252 0.99590707 0.98988616 0.9701736 0.99262786
00000000: 6c78 5c3f ca45 803f 422e 673f 6404 823f
00000010: 2929 823f 7be0 793f 1126 623f 259e 7a3f
00000020: 40d4 723f 85d5 833f 63fc 713f decb 783f
00000030: fd16 833f a3eb 7a3f 5b66 823f 1a2c 853f
00000040: 5dae 7d3f 410d 723f 51bb 783f 57c6 873f
00000050: db9e 663f 4005 7e3f cc2d 6f3f 017f 7c3f
00000060: e52c 7a3f 5448 743f af36 893f 3fbd 813f
00000070: e2ea 7c3f 4a31 693f c8cc 703f 5bbe 733f
00000080: e2f5 6f3f 8ea7 733f 1c4a 7d3f 0648 723f
00000090: 365a 713f d83d 803f 9426 873f c59d 9a3f
000000a0: ea1f 673f 5957 7c3f c414 923f a0da 833f
000000b0: 7aa6 853f edf9 673f 4d10 7f3f 8a96 823f
000000c0: 4651 783f a983 563f 8966 5e3f 1f48 803f
000000d0: 68aa 673f a259 773f 549c 643f 12b1 783f
000000e0: 57f2 7a3f f213 803f b688 713f fdcb 803f
000000f0: c4f3 7e3f 2e69 7d3f 4c5d 783f dc1c 7e3f

conv_block.5.bias f4 [64]
-0.18796237 0.05587453 -0.17934598 -0.15395677 -0.1986655 -0.18891256 -0.2992716 -0.19201455
-0.100434534 -0.17280707 -0.15628308 -0.31289703 0.092366435 -0.12927836 -0.09557106 -0.16223721
-0.21210149 -0.19309159 -0.21841641 -0.15285583 -0.318296 -0.12206402 -0.27279413 -0.20301083
-0.0187446 -0.26590806 -0.15082934 0.04933276 -0.25272894 -0.37861985 -0.31488302 -0.24278532
-0.22631261 -0.18081972 -0.11654991 -0.32303175 -0.23730198 -0.11032129 -0.17561087 -0.17493469
-0.22334358 -0.111769445 -0.34232247 -0.16168965 -0.062469114 -0.1607095 -0.008399702 0.03047006
-0.13549875 -0.23901491 -0.35514885 -0.21127611 -0.49940342 -0.18075411 -0.27983224 -0.24033704
-0.2913421 -0.15452875 -0.07712618 -0.22390686 -0.13838813 -0.27806714 -0.23382758 -0.14015469
00000000: 3579 40be b1dc 643d 79a6 37be d8a6 1dbe
00000010: f86e 4bbe 4b72 41be 213a 99be 769f 44be
00000020: 9fb0 cdbd 56f4 30be ac08 20be 0a34 a0be
00000030: 9d2a bd3d 8c61 04be c3ba c3bd 8321 26be
00000040: 2231 59be cdb9 45be 8da8 5fbe 3d86 1cbe
00000050: b1f7 a2be b3fc f9bd acab 8bbe 12e2 4fbe
00000060: 468e 99bc 1a25 88be 0273 1abe 2611 4a3d
00000070: b065 81be 76da c1be 5938 a1be b79c 78be
00000080: 7ebe 67be ce28 39be b8b1 eebd 6b64 a5be
00000090: 4aff 72be 21f0 e1bd 56d3 33be 1422 33be
000000a0: 2eb4 64be 61e7 e4bd e444 afbe f991 25be
000000b0: 9ddf 7fbd 0891 24be e79e 09bc 599c f93c
000000c0: 2fc0 0abe 53c0 74be 12d6 b5be c458 58be
000000d0: ceb1 ffbe 9b17 39be 2c46 8fbe ea1a 76be
000000e0: cb2a 95be c93c 1ebe 55f4 9dbd d747 65be
000000f0: 9eb5 0dbe d15e 8ebe 7f70 6fbe b684 0fbe

conv_block.5.running_mean f4 [64]
-1.7419276 -3.340331 -1.6758629 -1.2200682 -2.6065416 -1.6947451 -2.0893486 -2.9066231
-0.99138594 -1.2906027 -0.987804 -2.0905855 -3.361404 -2.003975 -2.0894113 -2.2077174
-1.4386965 -0.9118689 -1.7360289 -2.1221452 -1.7564068 -2.2315042 1.197408 -1.4745314
-0.7829611 -1.9646668 -2.5827107 -3.2793756 -1.7273729 -2.183203 -1.8339438 -1.8053559
-1.7146666 -1.3050435 -1.076582 -1.9033494 1.6996794 -1.8773054 -2.129211 -2.4447787
-1.711987 -1.83287 -2.3196027 -2.338751 -2.31354 -0.79217756 -2.2524407 -2.8782558
-1.4498729 -1.2981846 -1.970571 -2.118037 -2.7916727 0.35095045 -2.195 -1.7663954
-1.9038705 -1.950571 -1.3963773 -2.7832265 -1.4113727 -1.6732732 -2.731586 -1.6864501
00000000: 7cf7 debf fcc7 55c0 ad82 d6bf 322b 9cbf
00000010: 94d1 26c0 68ed d8bf e3b7 05c0 1d06 3ac0
00000020: 78cb 7dbf 7832 a5bf b9e0 7cbf 27cc 05c0
00000030: 3e21 57c0 2041 00c0 eab8 05c0 3e4b 0dc0
00000040: 3527 b8bf 3d70 69bf 3236 debf 3ad1 07c0
00000050: f0d1 e0bf f7d0 0ec0 aa44 993f 72bd bcbf
00000060: 2370 48bf 347a fbbf 224b 25c0 4ae1 51c0
00000070: 8e1a ddbf 99b9 0bc0 acbe eabf e715 e7bf
00000080: 327a dbbf aa0b a7bf 70cd 89bf f4a0 f3bf
00000090: 188f d93f 8b4b f0bf fe44 08c0 4177 1cc0
000000a0: 6422 dbbf 7c9b eabf 5f74 14c0 19ae 15c0
000000b0: 0a11 14c0 26cc 4abf fd27 10c0 5835 38c0
000000c0: 6f95 b9bf ea2a a6bf ac3b fcbf eb8d 07c0
000000d0: c4aa 32c0 c7af b33e e17a 0cc0 3f19 e2bf
000000e0: 07b2 f3bf 4fac f9bf 7ebc b2bf 6220 32c0
000000f0: dca7 b4bf d12d d6bf 4ed2 2ec0 99dd d7bf

conv_block.5.running_var f4 [64]
3.9607348 10.958119 4.7952056 5.5323143 5.342021 5.4930563 5.179543 6.8113666
2.4070303 3.4164655 5.75044 7.7680736 9.221344 5.6718817 9.362644 4.8923373
7.2741656 1.8650372 6.0228567 4.757003 5.243202 7.8540077 2.871603 3.6351352
4.6933947 7.1455183 5.9899096 10.240643 4.301557 3.4205673 5.793251 4.2661014
6.2867947 3.4277112 6.2779717 6.8162274 3.6832023 7.3778515 3.6360984 5.641236
3.6750212 5.975154 5.234111 4.697188 7.154217 2.4983938 8.686754 7.773027
4.1148405 2.6463485 4.0536075 7.1410146 6.130318 1.610625 4.4430437 6.2146826
4.320296 6.4578013 4.5739856 7.058792 6.381384 4.966543 6.463318 4.862589
00000000: ae7c 7d40 7554 2f41 5372 9940 b808 b140
00000010: d6f1 aa40 1ec7 af40 d1be a540 b7f6 d940
00000020: c90c 1a40 5fa7 5a40 9b03 b840 0f94 f840
00000030: a08a 1341 0e80 b540 64cd 1541 078e 9c40
00000040: f7c5 e840 8ab9 ee3f 3ebb c040 5e39 9840
00000050: 50c8 a740 0854 fb40 58c8 3740 0ea6 6840
00000060: 4a30 9640 16a8 e440 57ad bf40 acd9 2341
00000070: 5ba6 8940 93ea 5a40 5062 b940 e783 8840
00000080: 6c2d c940 9f5f 5b40 25e5 c840 891e da40
00000090: 96b9 6b40 5c17 ec40 d6b5 6840 0185 b440
000000a0: 8c33 6b40 7634 bf40 d67d a740 5d4f 9640
000000b0: 58ef e440 afe5 1f40 f2fc 0a41 a3bc f840
000000c0: c6ac 8340 c65d 2940 27b7 8140 3183 e440
000000d0: 912b c440 f628 ce3f 6a2d 8e40 aede c640
000000e0: dd3f 8a40 4fa6 ce40 175e 9240 a0e1 e140
000000f0: 4c34 cc40 eced 9e40 80d3 ce40 549a 9b40

conv_block.8.weight f4 [128, 64, 3, 3]
-0.0031486624 0.040209353 0.03950958 -0.043011867 0.023018794 0.026730062 -0.0035033692 -0.0017605596
0.025287457 0.030423941 0.03294609 0.059784 -0.0018876208 0.0069863903 0.001368545 -0.019412309
-0.002027945 0.015730198 -0.04582602 0.0003680932 0.0152673265 -0.053351313 -0.036099922 -0.008104658
-0.034633342 0.028378736 0.008186224 -0.017407712 -0.03061125 0.023533652 -0.03818446 -0.06803855
0.007291504 -0.013206657 -0.03192337 -0.0076751723 -0.028875357 -0.11940723 -0.11204321 -0.039671343
-0.1004284 -0.10122945 -0.02835165 -0.09494211 -0.09246545 0.05579889 0.08412232 -0.018878993
0.034830336 0.040374916 -0.0056744134 0.062906474 0.08465816 0.03595612 -0.019702543 -0.0027233693
0.030257886 -0.010702341 0.02453125 -0.014774928 0.027745074 0.04312558 0.021524766 -0.035732474
-0.13802256 -0.16678086 0.0015520859 -0.095259316 -0.109375544 -0.0042793704 -0.100518845 -0.08775646
0.017298082 -0.041768752 -0.008781678 0.01578756 -0.0212828 -0.039762784 -0.003206319 -0.033576313
-0.01222705 -0.068683766 -0.0100465445 0.045272615 -0.07629736 -0.016798245 0.03160148 -0.033863157
-0.02308093 0.003305278 0.031960662 -0.011657642 -0.063247986 0.06375457 -0.030754084 -0.032711342
-0.010880892 0.004834803 -0.023426985 0.06955462 0.12885009 0.053642098 0.045033183 0.08749228
0.018469073 0.033494085 0.102381654 0.053973623 -0.018658241 0.02170534 0.07011446 -0.023412691
0.03422748 0.057597145 -0.006253459 0.030361105 0.040935155 -0.007543822 0.054707777 0.072488345
0.026807725 0.068594374 0.058655735 0.013769689 0.06416512 0.067330666 0.017485945 0.044746574
0.067651294 0.051110774 0.07578611 0.07931546 0.03647159 0.057132877 0.10493461 -0.036325987
-0.12870532 -0.096969806 -0.01120646 -0.13766259 -0.118735254 -0.03965056 -0.13286936 -0.14133327
0.047346324 0.029129524 0.056051843 0.050336313 0.038740143 -0.00014756293 0.07190445 0.062239856
0.031962596 0.025199948 -0.0028312684 0.019406151 0.028532665 0.045686558 0.0053179106 -0.0008395857
0.005758187 0.028241279 0.052998375 -0.0024859144 -0.028588844 0.067609236 -0.006248731 -0.03534862
0.04596003 0.005880942 -0.0006308707 0.049784493 -0.05370083 -0.11192026 0.030519353 -0.05333185
-0.092027344 0.046577033 -0.04502618 -0.061234366 0.071862854 -0.018324614 0.054457504 0.028299827
-0.00560455 0.025666425 0.04704867 0.04443324 0.015404445 0.013948857 0.05050275 0.071074836
0.01811679 0.059276357 0.039800204 0.038273584 0.039389953 0.050078623 -0.05179115 -0.040932573
-0.038792327 -0.044691276 -0.0029964126 -0.04024973 -0.038471468 -0.02480072 -0.016454471 0.021120882
0.05321318 -0.017811723 -0.0038639135 0.04083845 -0.00566527 -0.0230986 0.044151615 -0.04199113
0.039049473 -0.036930066 -0.022687513 0.015252323 -0.006974268 0.028463103 -0.0018395205 -0.007945149
-0.0020415052 0.03412586 0.011723966 -0.02125772 0.026014823 -0.040415376 -0.032904718 0.009853721
-0.051840823 -0.060717966 -0.08371624 -0.117027126 -0.14136155 -0.05501698 -0.091097035 -0.12856409
-0.030505724 -0.09601609 -0.114654526 0.0051655024 0.03788002 0.08613931 0.016560066 0.06928382
0.07568632 0.05177435 0.08672236 0.09343409 0.070195936 0.10528594 0.05459522 -0.0020071522
00000000: ca59 4ebb 90b2 243d ccd4 213d 362d 30bd
00000010: e991 bc3c 01f9 da3c c898 65bb 94c2 e6ba
00000020: a427 cf3c a13b f93c 7bf2 063d 11e0 743d
00000030: 0b6a f7ba 17ee e43b c060 b33a 9006 9fbc
00000040: 45e7 04bb 9edc 803c 11b4 3bbd a2fc c039
00000050: cf23 7a3c e886 5abd 83dd 13bd 66c9 04bc
00000060: b1db 0dbd 867a e83c 831f 063c 9e9a 8ebc
00000070: 72c4 fabc a5c9 c03c 4f67 1cbd cc57 8bbd
00000080: 92ed ee3b bc60 58bc 14c2 02bd 0380 fbbb
00000090: 038c ecbc c78b f4bd e976 e5bd 6b7e 22bd
000000a0: 68ad cdbd 6351 cfbd b841 e8bc 0271 c2bd
000000b0: 875e bdbd 608d 643d 5348 ac3d 1ea8 9abc
000000c0: 41aa 0e3d 2b60 253d 6ef0 b9bb 1cd5 803d
000000d0: 4261 ad3d b946 133d 3a67 a1bc 8e7a 32bb
000000e0: 63df f73c df58 2fbc c3f5 c83c 8a12 72bc
000000f0: a349 e33c 73a4 303d b554 b03c 375c 12bd
00000100: c955 0dbe 9ac8 2abe 5c6f cb3a 5117 c3bd
00000110: 4900 e0bd f639 8cbb d3dc cdbd a9b9 b3bd
00000120: b5b4 8d3c b615 2bbd 07e1 0fbc ea54 813c
00000130: 4459 aebc 4dde 22bd 1b21 52bb 5187 09bd
00000140: f753 48bc 13aa 8cbd 439a 24bc c76f 393d
00000150: ca41 9cbd 799c 89bc 8e70 013d 18b4 0abd
00000160: 3814 bdbc 5d9d 583b 2fe9 023d b2ff 3ebc
00000170: 2988 81bd c291 823d fdef fbbc 54fc 05bd
00000180: c545 32bc 446d 9e3b f3e9 bfbc a772 8e3d
00000190: 47f1 033e d1b7 5b3d b774 383d 272f b33d
000001a0: 744c 973c 1831 093d 79ad d13d 7213 5d3d
000001b0: 2bd9 98bc 66cf b13c 2c98 8f3d f9cb bfbc
000001c0: 1d32 0c3d fcea 6b3d d1e9 ccbb dab7 f83c
000001d0: 9fab 273d 2a32 f7bb 4315 603d c574 943d
000001e0: e09b db3c 357b 8c3d ff40 703d 439a 613c
000001f0: 0169 833d a9e4 893d af3e 8f3c 2f48 373d
00000200: c38c 8a3d 8859 513d bf35 9b3d 2570 a23d
00000210: 3c63 153d 2a04 6a3d f5e7 d63d 8fca 14bd
00000220: 54cb 03be 1b98 c6bd 4d9b 37bc 6cf7 0cbe
00000230: 782b f3bd a068 22bd e80e 08be abb9 10be
00000240: 38ee 413d 0aa1 ee3c 9e96 653d 732d 4e3d
00000250: fcad 1e3d 1fbb 1ab9 a442 933d 38ef 7e3d
00000260: 36eb 023d 1f70 ce3c cd8c 39bb a6f9 9e3c
00000270: 56bd e93c d421 3b3d de41 ae3b a417 5cba
00000280: 2caf bc3b 415a e73c d314 593d b9ea 22bb
00000290: 2733 eabc b676 8a3d 28c2 ccbb b7c9 10bd
000002a0: 9640 3c3d ebb4 c03b 0461 25ba d3ea 4b3d
000002b0: 67f5 5bbd 7336 e5bd b903 fa3c 7f72 5abd
000002c0: d578 bcbd 8fc7 3e3d 5f6d 38bd e3d0 7abd
000002d0: d52c 933d 801d 96bc d50e 5f3d 0ad5 e73c
000002e0: 5fa6 b7bb 6542 d23c 1bb6 403d a1ff 353d
000002f0: ed62 7c3c bf89 643c f9db 4e3d af8f 913d
00000300: aa69 943c c4cb 723d 8a05 233d c3c4 1c3d
00000310: 5c57 213d 3e1f 4d3d f522 54bd eaa8 27bd
00000320: b4e4 1ebd 330e 37bd 765f 44bb e7dc 24bd
00000330: 4294 1dbd e12a cbbc 87cb 86bc b305 ad3c
00000340: 10f6 593d e4e9 91bc b639 7dbb 3846 273d
00000350: bba3 b9bb 4639 bdbc 53d8 343d e4fe 2bbd
00000360: 57f2 1f3d fb43 17bd 2adb b9bc e1e4 793c
00000370: 6688 e4bb 742b e93c 111c f1ba 5f2c 02bc
00000380: c6ca 05bb 8fc7 0b3d e115 403c ac24 aebc
00000390: 0a1d d53c 988a 25bd 19c7 06bd 8071 213c
000003a0: 0b57 54bd 67b3 78bd 6c73 abbd ebab efbd
000003b0: 15c1 10be 7c59 61bd 1591 babd 4ea6 03be
000003c0: 24e7 f9bc 15a4 c4bd fecf eabd 6043 a93b
000003d0: 1428 1b3d ce69 b03d faa8 873c ade4 8d3d
000003e0: 6e01 9b3d 5711 543d 7e9b b13d 5f5a bf3d
000003f0: e3c2 8f3d 28a0 d73d 3d9f 5f3d 6d8a 03bb

conv_block.8.bias f4 [128]
0.03453232 0.08707058 -0.0010612293 -0.012419223 0.06827103 0.04024606 -0.06650839 0.02821138
0.036821976 0.04896843 -0.022223461 -0.04429135 0.03543542 0.032242905 -0.017482039 0.012769618
0.022388572 -0.055169743 0.0056936024 0.0271477 -0.012408262 -0.02964114 0.019026877 0.052285176
0.018960297 0.03533233 0.017950125 -0.012513502 -0.053794213 -0.047227137 -0.010211003 0.024064215
-0.029387193 -0.016510366 -0.03766293 0.06466895 -0.01000301 -0.009685174 -0.0010039367 0.010108048
0.0065154266 0.038402136 -0.021240626 0.034143 0.007105663 -0.008654759 -0.028833441 0.011439804
-0.0177294 -0.038044553 -0.050650656 0.009587879 -0.039836235 0.0061543956 0.03967788 0.014408222
0.016375229 -0.071356885 0.01669504 -0.09044529 -0.0023493127 0.077793926 0.014036653 0.06843166
0.012714847 0.037303153 -0.027753538 0.042203926 0.033247393 0.023429623 -0.07769796 -0.0328746
-0.1066546 -0.037306383 0.04687994 0.04609505 0.012809591 1.8283026e-05 -0.032880045 0.007162919
-0.056831338 -0.022294633 0.018259712 0.053974472 0.04877194 0.0042544324 0.02177678 -0.08547479
0.019866932 0.0030051318 0.05530534 0.029293325 0.021797564 0.044180516 -0.0020703364 0.06435368
-0.023144705 -0.046745576 -0.0058427565 -0.03277241 0.055592395 0.04927903 0.061379533 0.016658053
-0.05170397 0.04633234 0.042451497 0.0344351 0.021725867 -0.0034476796 -0.031285133 0.0273502
0.0043182685 0.04290083 -0.042178787 -0.039722033 0.022373926 6.6405846e-07 0.035089906 0.015337611
0.049806107 -0.015877899 -0.047441963 -0.02312005 -0.00019891321 0.019310819 0.05411215 -0.003722316
00000000: c371 0d3d 0f52 b23d f218 8bba ff79 4bbc
00000010: afd1 8b3d 0dd9 243d 8d35 88bd 8d1b e73c
00000020: a4d2 163d 1f93 483d fa0d b6bc d96a 35bd
00000030: bb24 113d 2311 043d 7e36 8fbc a937 513c
00000040: 3d68 b73c abf9 61bd 6691 ba3b da64 de3c
00000050: 064c 4bbc fad1 f2bc 41de 9b3c fb28 563d
00000060: a052 9b3c a2b8 103d 240c 933c 6e05 4dbc
00000070: 5257 5cbd 3e71 41bd 0d4c 27bc 5122 c53c
00000080: 69bd f0bc bf40 87bc 7244 1abd 2871 843d
00000090: aae3 23bc 90ae 1ebc 8796 83ba 3a9c 253c
000000a0: 5c7f d53b 8f4b 1d3d d200 aebc 88d9 0b3d
000000b0: 9fd6 e83b b1cc 0dbc 1c34 ecbc 046e 3b3c
000000c0: 3f3d 91bc 9bd4 1bbd 1077 4fbd 7b16 1d3c
000000d0: 522b 23bd d0aa c93b 4685 223d 7710 6c3c
000000e0: 5825 863c 8f23 92bd 09c4 883c 613b b9bd
000000f0: edf6 19bb 6c52 9f3d fdf9 653c e625 8c3d
00000100: ef51 503c 31cb 183d 635b e3bc 06de 2c3d
00000110: 6b2e 083d 7bef bf3c 1c20 9fbd 84a7 06bd
00000120: ba6d dabd 94ce 18bd 2e05 403d 2ace 3c3d
00000130: 52df 513c 805e 9937 3aad 06bd ebb6 ea3b
00000140: fac7 68bd 3ca3 b6bc 6495 953c 5614 5d3d
00000150: 16c5 473d c468 8b3b 3865 b23c 680d afbd
00000160: fabf a23c bff1 443b da87 623d 8ef8 ef3c
00000170: ce90 b23c a1f6 343d 7bae 07bb ddcb 833d
00000180: f799 bdbc 4a78 3fbd 9874 bfbb 5d3c 06bd
00000190: dab4 633d cfd8 493d 1b69 7b3d 7876 883c
000001a0: 8bc7 53bd fbc6 3d3d 9fe1 2d3d d20b 0d3d
000001b0: 72fa b13c 77f2 61bb d724 00bd 870d e03c
000001c0: 4380 8d3b c8b8 2f3d aac3 2cbd 92b3 22bd
000001d0: 8649 b73c c041 3235 6fba 0f3d 9a4a 7b3c
000001e0: 7d01 4c3d 5e12 82bc 8152 42bd 4266 bdbc
000001f0: 5c93 50b9 b931 9e3c b4a4 5d3d 19f2 73bb

conv_block.9.weight f4 [128]
1.0628854 1.0282238 1.0445019 1.0488272 1.0681201 1.0616119 1.0507183 1.0232846
1.0133232 1.0743226 1.0517733 1.0325639 1.0530953 1.07635 1.0708505 1.0717374
1.0610974 1.050127 0.939227 1.0522974 1.0485196 1.043348 1.0623766 1.0104188
1.0188128 1.0562311 1.0042962 1.045196 1.0491706 1.056674 1.0600485 1.070294
1.0538448 1.0598552 1.0367697 1.0559603 0.9505919 1.0627269 1.0504422 1.0642036
1.0155697 1.0737525 1.0320916 1.0730654 1.0596424 1.0684901 1.0735201 1.042494
1.0402298 1.0325841 1.0251069 1.0637043 1.0432783 1.0645758 1.040901 1.0563148
1.0351831 1.0707431 1.0511063 1.0707685 1.0581034 1.0375409 1.0626527 1.0496608
1.0585197 1.0465243 1.0526624 1.0471278 1.0746702 1.0527033 1.0293196 1.0505029
1.0644888 1.0527494 1.0458422 1.0680313 1.0391659 1.0524567 1.0550369 1.0039027
1.046278 1.0472956 1.0442249 0.98997605 1.0049334 0.98497146 1.0561252 1.0672387
0.98640424 1.0473311 1.043161 1.0702841 0.9851968 1.0281935 1.0524333 1.0534763
1.0569487 1.0411079 1.0022439 1.0314083 1.0586367 1.076388 1.0586567 1.0668695
1.0442315 1.0708371 1.025261 1.0519931 1.0201927 1.056509 1.0219533 1.0588912
1.0387114 1.0441554 1.0468005 1.0512588 1.0345802 1.0668026 1.0679985 1.0577973
1.0521178 1.0769358 1.0474036 1.0655314 1.0575724 0.9964481 1.0359124 1.0478536
00000000: a10c 883f d69c 833f 3db2 853f f83f 863f
00000010: 29b8 883f e6e2 873f f07d 863f fdfa 823f
00000020: 93b4 813f 6783 893f 82a0 863f 0e2b 843f
00000030: d4cb 863f d6c5 893f a111 893f b12e 893f
00000040: 0ad2 873f 906a 863f 2e71 703f aeb1 863f
00000050: e435 863f 6d8c 853f f5fb 873f 6755 813f
00000060: 7568 823f 9532 873f c78c 803f fcc8 853f
00000070: 394b 863f 1841 873f abaf 873f 65ff 883f
00000080: 63e4 863f 56a9 873f dfb4 843f b529 873f
00000090: fe59 733f 6f07 883f e474 863f d337 883f
000000a0: 30fe 813f b970 893f 941b 843f 355a 893f
000000b0: 5da2 873f 49c4 883f 1b69 893f 7270 853f
000000c0: 4026 853f b72b 843f b436 833f 7627 883f
000000d0: 258a 853f 0544 883f 3e3c 853f 5335 873f
000000e0: e180 843f 1c0e 893f a78a 863f f10e 893f
000000f0: ef6f 873f 24ce 843f 0105 883f 495b 863f
00000100: 937d 873f 82f4 853f a4bd 863f 4908 863f
00000110: cb8e 893f fbbe 863f bfc0 833f e176 863f
00000120: 2b41 883f 7ec0 863f 28de 853f 40b5 883f
00000130: 6303 853f e7b6 863f 730b 873f e27f 803f
00000140: 70ec 853f c80d 863f 29a9 853f 126f 7d3f
00000150: a8a1 803f 1727 7c3f 1c2f 873f 479b 883f
00000160: fd84 7c3f f20e 863f 4d86 853f 12ff 883f
00000170: dc35 7c3f d89b 833f 22b6 863f 50d8 863f
00000180: 184a 873f 0643 853f 8749 803f 3005 843f
00000190: 6881 873f 15c7 893f 1082 873f 2e8f 883f
000001a0: 61a9 853f 3111 893f c13b 833f b6a7 863f
000001b0: ad95 823f b03b 873f 5ecf 823f bf89 873f
000001c0: 7ff4 843f e2a6 853f 8ffd 853f a68f 863f
000001d0: 206d 843f fd8c 883f 2db4 883f e765 873f
000001e0: ccab 863f 08d9 893f 5211 863f 5563 883f
000001f0: 885e 873f 3917 7f3f c798 843f 1120 863f

conv_block.9.bias f4 [128]
-0.030125193 -0.041414052 -0.045828275 -0.031913698 -0.013708003 -0.017253147 -0.025994964 -0.047248088
-0.05707316 -0.005092605 -0.019271268 -0.047301374 -0.030962814 -0.002242274 -0.004079091 -0.029968388
-0.030781984 -0.04374833 -0.11868543 -0.03230861 -0.034872573 -0.025449978 -0.018516881 -0.06708863
-0.040849213 -0.036178503 -0.061437264 -0.034697406 -0.030781204 -0.040181853 -0.035916466 -0.013640677
-0.016110754 -0.030010106 -0.042840026 -0.052631143 -0.11130254 -0.027138434 -0.020919548 -0.025548687
-0.05792703 -0.001513988 -0.03305485 -0.012826918 -0.013696263 -0.010138002 -0.00600065 -0.03308956
-0.045192275 -0.033234186 -0.0375764 -0.033055298 -0.03535608 -0.021348871 -0.038834423 -0.031943187
-0.053843036 -0.006411863 -0.04090015 -0.027210377 -0.022719093 -0.050997242 -0.037079323 -0.0303322
-0.022470236 -0.03284226 -0.023979705 -0.034344852 0.0018449976 -0.03910237 -0.043183684 -0.03817142
-0.029287769 -0.02567491 -0.023782311 -0.012000631 -0.042977538 -0.024781423 -0.033605393 -0.051967163
-0.0532205 -0.04066486 -0.03294518 -0.07359278 -0.07653384 -0.059884444 -0.02123334 -0.030820632
-0.08264843 -0.025699439 -0.030560717 -0.006000506 -0.08749696 -0.052603353 -0.029698627 -0.037365258
-0.016089428 -0.03474687 -0.058887582 -0.046737853 -0.02060545 0.0015535794 -0.026882306 -0.030849278
-0.039841875 -0.029115817 -0.040747978 -0.03115116 -0.06380113 -0.037238806 -0.054981392 -0.026779942
-0.04569804 -0.03328833 -0.037057504 -0.022205237 -0.038324464 -0.012612322 -0.011704896 -0.018598463
-0.028097805 -0.0063168732 -0.034873653 -0.013546478 -0.04101164 -0.047500256 -0.05534236 -0.033183064
00000000: 1cc9 f6bc c8a1 29bd 6eb6 3bbd f0b7 02bd
00000010: 8897 60bc 7956 8dbc 64f3 d4bc 3687 41bd
00000020: 8cc5 69bd dedf a6bb c7de 9dbc 16bf 41bd
00000030: baa5 fdbc 1df3 12bb e5a9 85bb 4480 f5bc
00000040: 802a fcbc 7331 33bd 5911 f3bd 0856 04bd
00000050: 8bd6 0ebd 797c d0bc b7b0 97bc c365 89bd
00000060: 8151 27bd e92f 14bd a4a5 7bbd de1e 0ebd
00000070: dd28 fcbc ba95 24bd 251d 13bd 257d 5fbc
00000080: b3fa 83bc c1d7 f5bc 0679 2fbd c193 57bd
00000090: 96f2 e3bd 6c51 debc 795f abbc 7b4b d1bc
000000a0: e544 6dbd 0271 c6ba 8664 07bd fe27 52bc
000000b0: 4a66 60bc dd19 26bc 1aa1 c4bb eb88 07bd
000000c0: 891b 39bd 9220 08bd b6e9 19bd fe64 07bd
000000d0: 89d1 10bd d4e3 aebc d810 1fbd dcd6 02bd
000000e0: 848a 5cbd 9b1a d2bb ea86 27bd 4ce8 debc
000000f0: 641d babc 7ce2 50bd 7de0 17bd 3c7b f8bc
00000100: 8013 b8bc 9b85 06bd 1671 c4bc 30ad 0cbd
00000110: d9d3 f13a cf29 20bd 60e1 30bd a359 1cbd
00000120: e7ec efbc 3054 d2bc 1fd3 c2bc 4b9e 44bc
00000130: 3709 30bd 6902 cbbc cfa5 09bd 85db 54bd
00000140: bdfd 59bd 3290 26bd 86f1 06bd d0b7 96bd
00000150: c6bd 9cbd 6449 75bd 8bf1 adbc 8d7b fcbc
00000160: 9443 a9bd a187 d2bc 785a fabc e59f c4bb
00000170: 9b31 b3bd 9d76 57bd 894a f3bc 500c 19bd
00000180: facd 83bc bc52 0ebd 1b34 71bd 3170 3fbd
00000190: c3cc a8bc 79a1 cb3a 4838 dcbc a0b7 fcbc
000001a0: 3c31 23bd 4b84 eebc 5ae7 26bd b830 ffbc
000001b0: 2baa 82bd b887 18bd 2b34 61bd 9c61 dbbc
000001c0: de2d 3bbd 5859 08bd 9cc9 17bd c2e7 b5bc
000001d0: 1dfa 1cbd eaa3 4ebc e4c5 3fbc ce5b 98bc
000001e0: 5e2d e6bc c6fd cebb add7 0ebd 0cf2 5dbc
000001f0: d2fb 27bd a18f 42bd acae 62bd f7ea 07bd

conv_block.9.running_mean f4 [128]
-1.2763896 -4.012082 -0.8748835 -1.5001637 -3.8310978 -4.047748 -3.976975 -1.5811177
-3.9586906 -2.6227813 -2.8757784 -1.5000658 -4.0634565 -2.5829084 -2.5953224 -1.3589686
-1.5132734 -1.3893458 3.0359106 -3.8515356 -1.3500139 -3.619915 -3.9259975 -0.14259546
2.6252117 -1.1029254 2.2125907 -4.0458775 -2.5080612 -1.0490535 -1.2681847 -2.8660378
-4.0534506 -0.58865756 -0.41023114 -1.2047459 3.2298157 -0.67667234 -2.6877406 -0.87143767
-0.23773287 -2.6701455 -2.9447303 -3.788491 -2.6406856 -2.693657 -3.7733872 -2.398536
0.6455243 2.4291997 2.3452868 -0.78577244 -3.7666206 -0.38362452 -3.8302536 -0.108815864
-1.3358709 -2.6302214 -1.4778657 -1.5416497 -4.0593467 -0.52042854 -1.2678268 -3.7503562
-4.1059785 -4.3191314 -3.788279 -1.8393064 -2.5369925 -1.491654 -3.8802726 -1.4782175
-0.96601915 -2.6349607 -3.9441009 -3.8544643 -4.251317 -3.9875228 0.060313635 -0.9145753
-1.1939634 0.2774837 -1.5194744 2.7499688 -1.8374515 2.3008945 -3.9201102 -0.78439486
-1.6369563 -2.6744726 -4.0392175 -2.5592225 2.8846285 -0.96785575 -1.3993064 -0.61490476
-3.956776 -0.20956284 -1.3686386 -1.8247437 -2.5733342 -2.5252523 0.49266693 -0.75752807
-4.1031194 -1.1675649 -0.79302424 -1.6908354 -1.3975756 -0.91328466 -1.5280081 -1.1641945
0.64551795 -1.3183461 -3.7886677 -4.1469073 -4.188281 -4.0663652 -3.9706073 -3.6310067
-3.8591611 -2.5662425 -4.1979704 -4.0074215 -0.32723472 0.030410126 -0.9935903 -3.9680047
00000000: bc60 a3bf fa62 80c0 5df8 5fbf 5d05 c0bf
00000010: b530 75c0 2787 81c0 c286 7ec0 1162 cabf
00000020: 305b 7dc0 a6db 27c0 c10c 38c0 2802 c0bf
00000030: d607 82c0 5f4e 25c0 c319 26c0 aff2 adbf
00000040: f1b2 c1bf 15d6 b1bf 5c4c 4240 8f7f 76c0
00000050: 41cd acbf b0ac 67c0 8b43 7bc0 8b04 12be
00000060: 7803 2840 a92c 8dbf 169b 0d40 d477 81c0
00000070: 1384 20c0 6347 86bf e053 a2bf 2a6d 37c0
00000080: deb5 81c0 43b2 16bf d109 d2be 1d35 9abf
00000090: 4db5 4e40 663a 2dbf f103 2cc0 8a16 5fbf
000000a0: 3f70 73be aae3 2ac0 7676 3cc0 a376 72c0
000000b0: fe00 29c0 e064 2cc0 2d7f 71c0 9d81 19c0
000000c0: 1541 253f 0278 1b40 2e19 1640 6228 49bf
000000d0: 5010 71c0 6f6a c4be e022 75c0 dada debd
000000e0: d1fd aabf 8c55 28c0 b42a bdbf c754 c5bf
000000f0: 2be6 81c0 ce3a 05bf 2648 a2bf d605 70c0
00000100: 2d64 83c0 5336 8ac0 2a73 72c0 646e ebbf
00000110: 165e 22c0 85ee bebf 6356 78c0 3b36 bdbf
00000120: 084d 77bf 32a3 28c0 266c 7cc0 8baf 76c0
00000130: ca0a 88c0 9333 7fc0 6e0b 773d 9b21 6abf
00000140: cbd3 98bf 5812 8e3e 237e c2bf 7dff 2f40
00000150: 9c31 ebbf db41 1340 16e3 7ac0 1ace 48bf
00000160: c987 d1bf 8f2a 2bc0 4541 81c0 4dca 23c0
00000170: c19d 3840 65c5 77bf 791c b3bf 666a 1dbf
00000180: d13b 7dc0 a497 56be 8d2f afbf 3491 e9bf
00000190: 82b1 24c0 bc9d 21c0 d73e fc3e 5ced 41bf
000001a0: c14c 83c0 c472 95bf a303 4bbf 4b6d d8bf
000001b0: c2e3 b2bf 06cd 69bf c595 c3bf 5304 95bf
000001c0: aa40 253f 91bf a8bf 8879 72c0 77b3 84c0
000001d0: 6606 86c0 aa1f 82c0 6e1e 7ec0 6a62 68c0
000001e0: 7ffc 76c0 513d 24c0 c655 86c0 cc3c 80c0
000001f0: 4f8b a7be a81e f93c ef5b 7ebf caf3 7dc0

conv_block.9.running_var f4 [128]
2.6329677 2.23462 2.42467 2.3444636 1.979045 2.165454 2.0516357 2.1512868
2.2113614 2.3682578 2.0015361 2.3894005 2.1466985 2.354198 2.3723216 2.6290178
2.6183984 2.4002879 2.716315 2.0143952 2.2387373 1.8397008 2.0282881 3.062034
2.26055 2.353948 2.1516848 2.0926337 2.5473785 2.6732826 2.64977 2.4662406
2.1230147 2.72043 2.8867626 2.888916 2.4745684 2.6843548 2.3355112 2.837299
2.9371073 2.2124217 1.8207964 1.9774851 2.2602437 2.3081992 2.0854466 2.2820842
3.0344138 2.16661 2.162677 2.8410904 1.9090034 2.949646 1.9386759 2.9594784
2.511431 2.3555744 2.549799 2.6317549 2.099979 2.939262 2.5753882 1.9331981
2.1592298 2.40043 1.8559836 2.2622414 2.1575856 2.4548056 1.9365143 2.7327628
2.7614958 2.580798 2.1620588 2.0208373 2.1996155 2.012663 2.9012928 2.425301
2.6035724 2.882945 2.1119094 2.3197696 2.4599342 2.0976794 2.0157616 2.8522902
2.5269942 2.4509544 2.1689224 2.171077 2.629627 2.7487738 2.3744092 2.7056735
2.107285 2.9565282 2.3653743 2.4874442 2.4042523 2.1442544 3.140956 2.6857123
2.1397367 2.607808 2.7111402 2.2782884 2.3796024 2.6621692 2.4658854 2.5511756
2.9616728 2.1284218 1.8480659 2.2625322 2.2704947 2.2244728 2.0577424 1.8678516
2.024618 2.1971812 2.2196565 2.036708 3.0060542 1.5613059 2.5627923 2.104686
00000000: 8b82 2840 0404 0f40 cb2d 1b40 b10b 1640
00000010: 5951 fd3f cc96 0a40 004e 0340 afae 0940
00000020: f286 0d40 8991 1740 2b19 0040 f0eb 1840
00000030: 8263 0940 2eab 1640 1ed4 1740 d441 2840
00000040: d793 2740 519e 1940 1bd8 2d40 daeb 0040
00000050: 7947 0f40 517b eb3f 79cf 0140 5df8 4340
00000060: daac 1040 16a7 1640 34b5 0940 b6ed 0540
00000070: 4008 2340 1017 2b40 d595 2940 e3d6 1d40
00000080: 79df 0740 861b 2e40 b8c0 3840 00e4 3840
00000090: 545f 1e40 78cc 2b40 0479 1540 4f96 3540
000000a0: 91f9 3b40 5198 0d40 db0f e93f 3b1e fd3f
000000b0: d5a7 1040 89b9 1340 f577 0540 ab0d 1240
000000c0: d633 4240 bda9 0a40 4d69 0a40 6dd4 3540
000000d0: 395a f43f 00c7 3c40 8826 f83f 1868 3d40
000000e0: 49bb 2040 bbc1 1640 e82f 2340 ac6e 2840
000000f0: 0e66 0640 de1c 3c40 29d3 2440 0973 f73f
00000100: d230 0a40 a5a0 1940 df90 ed3f 90c8 1040
00000110: e215 0a40 891b 1d40 b3df f73f 96e5 2e40
00000120: 59bc 3040 cb2b 2540 2c5f 0a40 6655 0140
00000130: 80c6 0c40 78cf 0040 c8ae 3940 2238 1b40
00000140: eea0 2640 2c82 3840 8629 0740 1b77 1440
00000150: 906f 1d40 6140 0640 3d02 0140 ec8b 3640
00000160: 46ba 2140 70dc 1c40 a0cf 0a40 edf2 0a40
00000170: cf4b 2840 e9eb 2f40 52f6 1740 c129 2d40
00000180: c2dd 0640 c237 3d40 4b62 1740 4932 1f40
00000190: 45df 1940 773b 0940 6c05 4940 b6e2 2b40
000001a0: 72f1 0840 54e6 2640 5283 2d40 7acf 1140
000001b0: 684b 1840 fb60 2a40 11d1 1d40 7646 2340
000001c0: 0c8c 3d40 1038 0840 6c8d ec3f 54cd 1040
000001d0: c94f 1140 c35d 0e40 0db2 0340 c315 ef3f
000001e0: 5793 0140 9e9e 0c40 da0e 0e40 6d59 0240
000001f0: 3163 4040 dfd8 c73f ca04 2440 2db3 0640
