python_server/video_caption_generator/classifier/ensemble/step2A/step2A_3.pt (torch, 417248 bytes, 22 tensors)

conv_block.0.weight f4 [32, 1, 3, 3]
0	0xbea7b527	-0.32755396
1	0x3e73aff2	0.23797587
2	0x3eb1c4d5	0.34720483
3	0xbe34c908	-0.17654812
4	0xbe98a9db	-0.2981709
5	0xbe477774	-0.19479162
6	0x3ed66f39	0.4188173
7	0x3d6fb3fa	0.05852125
8	0x3e4e6594	0.20155936
9	0xbd57e05e	-0.052704208
10	0x3dab29a5	0.083575524
11	0xbe4d7f3d	-0.20068069
12	0x3dce2e17	0.10067385
13	0x3d0f0a18	0.034921736
14	0xbf096163	-0.53664225
15	0xbcd6785b	-0.026180437
16	0x3df816e9	0.12113745
17	0xbe2f1441	-0.1709757
18	0xbcdcd288	-0.026955858
19	0xbe9ffe39	-0.31248644
20	0xbe6d6fdc	-0.23187202
21	0x3d544163	0.05182017
22	0xbe9dad33	-0.30796203
23	0x3dded9f0	0.10881412
24	0x3e3869be	0.18009087
25	0xbdcd5d6b	-0.10027584
26	0x3e2c15eb	0.16805236
27	0xbe95e836	-0.29278725
28	0xbd6ff02e	-0.058578663
29	0x3eafbd44	0.34324086
30	0x3dde669a	0.108594134
31	0x3e88882e	0.26666397
32	0x3e9570c7	0.29187605
33	0xbe4bca22	-0.19901326
34	0xbc65c18e	-0.014023198
35	0xbd57c60a	-0.0526791
36	0xbd7310e8	-0.059342295
37	0xbe027d0d	-0.12743016
38	0x3e4f3034	0.20233232
39	0xbf11f16a	-0.57008994
40	0x3dd2fa21	0.103016146
41	0xbd9ad2e8	-0.075597584
42	0xbeeef209	-0.46669033
43	0xbd87acf5	-0.06624786
44	0x3d48d6ac	0.049032852
45	0xbdafd27e	-0.0858507
46	0xbe0bfffb	-0.13671868
47	0xbda25db0	-0.07928026
48	0x3dc15469	0.09439928
49	0xbe4c3ef0	-0.19945884
50	0xbdccad68	-0.09994012
51	0x3e29466b	0.16530769
52	0xbe8682a4	-0.26271546
53	0xbe882b16	-0.26595372
54	0xbe1f4389	-0.15553106
55	0xbe470533	-0.19435577
56	0x3e803cd9	0.25046423
57	0xbe95b867	-0.2924225
58	0xbe8bcf6b	-0.27306685
59	0xbe5d73e3	-0.21626239
60	0x3e10df19	0.14147605
61	0x3e1ec707	0.1550561
62	0xbe827cc9	-0.2548583
63	0x3eb557bc	0.354185
64	0x3d955430	0.07291448
65	0xba1b4568	-0.0005923123
66	0x3f09334d	0.53593904
67	0xbce4fb40	-0.027951837
68	0x3e812b12	0.25228173
69	0x3e09fa5a	0.13474408
70	0x3e146fe1	0.14495803
71	0xbd94f5d3	-0.0727345
72	0x3da358e0	0.07975936
73	0xbd2bd25e	-0.04194867
74	0xbc8d871c	-0.01727634
75	0x3eb18c17	0.34677193
76	0xbe0548be	-0.1301603
77	0xbe7ee69d	-0.2489266
78	0xbd66fa86	-0.05639126
79	0x3d33db0c	0.04391007
80	0xbe1258ce	-0.14291689
81	0xbe4b2fa9	-0.198424
82	0x3e5651a0	0.20929575
83	0x3d47fcb4	0.04882498
84	0xbf1cf53d	-0.61311704
85	0xbe9fd2c3	-0.31215486
86	0x3e3e69a2	0.18594983
87	0xbe14ccd8	-0.14531267
88	0x3cc9ce76	0.024634581
89	0xbe63a451	-0.2223065
90	0xbf12f3a2	-0.57403004
91	0x3dd4116d	0.10354886
92	0xbcca274b	-0.02467694
93	0xbf2c0d17	-0.67207474
94	0xbe2ffb12	-0.1718562
95	0xbe136a1c	-0.14395946
96	0xbf100ff5	-0.5627435
97	0x3e0eec88	0.13957417
98	0x3dd4115d	0.10354874
99	0x3c2efe0c	0.010680687
100	0xbe04e5d8	-0.12978303
101	0x3e250247	0.1611415
102	0x3ec29a1c	0.380082
103	0x3e3f5edb	0.18688528
104	0x3e83582d	0.2565321
105	0xbcbf14d1	-0.023325356
106	0xbdebea99	-0.11519355
107	0xbd62f82a	-0.05541245
108	0xbc19702a	-0.009365121
109	0x3eb87ca0	0.3603258
110	0xbcf09401	-0.029367449
111	0xbca151b2	-0.019692276
112	0xbe94b293	-0.2904249
113	0xbdcff62b	-0.10154375
114	0x3ddac9df	0.10683035
115	0xbdfab5b0	-0.122416854
116	0x3e843a13	0.25825557
117	0xb96e5c1e	-0.00022731765
118	0x3b84bf82	0.00405115
119	0xbd0738dd	-0.033013213
120	0xbd8622a9	-0.0654958
121	0xbe840868	-0.25787663
122	0x3d77cfb6	0.060500823
123	0xbe642751	-0.22280623
124	0xbe83a0f7	-0.25708744
125	0x3d4afad8	0.04955563
126	0xbe812642	-0.252245
127	0x3e1753f7	0.14778124
128	0xbe159907	-0.14609157
129	0xbe979b18	-0.29610515
130	0xbe23b016	-0.1598514
131	0x3bbd8753	0.005783954
132	0xbe9198f1	-0.28436998
133	0xbd93020b	-0.07178124
134	0x3de5b537	0.112162046
135	0x3e730244	0.23731333
136	0x3d15a151	0.036530796
137	0xbd8dc187	-0.06921678
138	0x3c131c89	0.008978971
139	0x3e38862e	0.18019935
140	0x3e66224a	0.22474018
141	0xbdd5659c	-0.10419771
142	0xbe44721e	-0.19184157
143	0x3e2adc6c	0.16685647
144	0x3eacbff4	0.337402
145	0xbe0c99fa	-0.13730612
146	0x3eb9e8dc	0.3631047
147	0x3e19cd09	0.15019621
148	0xbde27a03	-0.11058428
149	0xbe70a928	-0.23502028
150	0x3e249f4a	0.16076389
151	0x3e29b35a	0.16572323
152	0x3e9b8b51	0.30379727
153	0xbc773584	-0.015088443
154	0x3e2536da	0.16134205
155	0xbd885251	-0.066563256
156	0x3ea13c9b	0.3149155
157	0xbdefaf60	-0.11703372
158	0x3eafe6f7	0.343559
159	0x3d6e1206	0.058122657
160	0xbe033e60	-0.12816763
161	0x3eafb1bc	0.34315288
162	0x3d35834b	0.044314664
163	0xbdf5b984	-0.11998275
164	0xbe7cbaaf	-0.24680589
165	0x3e51e80a	0.20498672
166	0xbed4381a	-0.41449052
167	0x3d36b093	0.044601988
168	0x3e46d9bc	0.19418997
169	0xbdf0898e	-0.117449865
170	0x3d42c0cb	0.047547143
171	0x3e235af0	0.15952659
172	0xbde8d96d	-0.11369596
173	0x3db40599	0.0879013
174	0xbe8df2ab	-0.27724203
175	0x3e3ad7d8	0.182464
176	0xbdc7d479	-0.09757323
177	0xbdbeb9ef	-0.09312808
178	0xbe878c45	-0.26474205
179	0xbeb0f000	-0.34558105
180	0x3e8ad220	0.27113438
181	0xbdfee4d6	-0.12445991
182	0xbe0089e3	-0.125526
183	0x3ed5a5e7	0.41728136
184	0x3e33d8d3	0.1756318
185	0x3e8271d2	0.25477463
186	0x3d1ef9c5	0.038812418
187	0xbd5d48a7	-0.054024365
188	0x3c4ef55e	0.012631742
189	0x3e593dea	0.21215025
190	0xbe6a25a9	-0.22865929
191	0xbe14ff51	-0.1455052
192	0xbeb43bb2	-0.35201794
193	0xbe87557f	-0.26432416
194	0x3cdd02b1	0.026978822
195	0x3dd8ec93	0.10591998
196	0x3e97d7f9	0.29656962
197	0x3e1ea2dd	0.15491815
198	0x3dfb5de3	0.12273767
199	0x3d865638	0.06559414
200	0xbd7f1ad6	-0.062281452
201	0x3e72ea61	0.23722221
202	0x3d2da95f	0.042397853
203	0x3e8b431a	0.27199632
204	0x3ecfd00a	0.4058841
205	0xbd69a827	-0.05704513
206	0x3d02455f	0.03180444
207	0x3caed755	0.021342913
208	0xbcf6d945	-0.030132899
209	0x3d638a98	0.055552095
210	0xbe905a49	-0.28193882
211	0xbe80f46f	-0.25186488
212	0xbe8db01e	-0.2767343
213	0xbe7e77f6	-0.24850449
214	0xbddf8c67	-0.109154515
215	0xbdf05514	-0.11734977
216	0xbe5f0e2d	-0.21782751
217	0x3e945bd8	0.2897632
218	0xbdea9431	-0.114540465
219	0xbe5226d9	-0.20522632
220	0xbe47f75a	-0.19527951
221	0x3db4ac3d	0.08821914
222	0x3da78d3d	0.08181236
223	0x3e4b1519	0.19832267
224	0xbe666724	-0.22500283
225	0x3e99f354	0.30068457
226	0xbe530afe	-0.20609662
227	0x3c272061	0.010200591
228	0x3e6ca6bd	0.2311048
229	0xbe60b603	-0.21944432
230	0xbe67d8fb	-0.22641365
231	0x3e80afb5	0.25134054
232	0xbccc1082	-0.024910215
233	0xbec51bd8	-0.38497806
234	0xbe0b0cbe	-0.1357908
235	0x3e3d64ca	0.18495479
236	0xbe938c6f	-0.2881808
237	0xbde7470f	-0.1129285
238	0x3e355839	0.17709436
239	0xbdc8c87b	-0.098038636
240	0xbe2153a2	-0.1575456
241	0x3e1cff83	0.15331845
242	0xbe4a203f	-0.19738863
243	0x3dc2287b	0.09480377
244	0x3e0bc836	0.13650593
245	0x3e154a3a	0.14579096
246	0xbd1de663	-0.038549792
247	0x3e98b815	0.29827943
248	0x3e5d07ab	0.21584956
249	0xbe77aa66	-0.24186096
250	0x3e9dd0ad	0.3082327
251	0xbc6dc896	-0.014513155
252	0xbe89c61c	-0.26908958
253	0xbe956136	-0.2917573
254	0x3d32040e	0.043460898
255	0xbe892e60	-0.26793194

conv_block.0.bias f4 [32]
0	0x3e8038c4	0.2504331
1	0x3e7aef74	0.24505407
2	0xbdbb178d	-0.09135351
3	0xbc9bf541	-0.019037845
4	0xbeb6c26f	-0.35695216
5	0xbc1d547c	-0.009602662
6	0xbe1d1a11	-0.15341975
7	0x3e3fecac	0.18742627
8	0x3e96a402	0.29422003
9	0x3e839d63	0.25706014
10	0x3d30e96d	0.043191362
11	0x3e33e108	0.17566311
12	0x3e856cf7	0.26059696
13	0x3e5ff674	0.21871358
14	0xbe8696e0	-0.26286983
15	0x3ea30d5a	0.31846124
16	0xbd039167	-0.03212109
17	0x3e8830e7	0.2659981
18	0xbd977d1b	-0.07396909
19	0x3dce7ffd	0.100830056
20	0x3e768dd5	0.24077542
21	0xbe70ac9a	-0.23503342
22	0x3e1382ad	0.14405318
23	0xbe8e611c	-0.27808464
24	0x3e929bf0	0.28634596
25	0x3e8288ab	0.25494894
26	0x3eada72c	0.33916605
27	0xbbf4f9ca	-0.0074760662
28	0x3e144d80	0.14482689
29	0xbe583a7b	-0.21116059
30	0xbcc52dd7	-0.02406971
31	0xbd46210a	-0.048371352

conv_block.1.weight f4 [32]
0	0x3f69d26b	0.913367
1	0x3f6468e9	0.8922258
2	0x3f756ae1	0.9586621
3	0x3f4fd06d	0.8117741
4	0x3f8e43a0	1.1114388
5	0x3f813747	1.0094994
6	0x3f7b078d	0.98058397
7	0x3f5d361c	0.8641069
8	0x3f86940d	1.0513932
9	0x3f8822fa	1.0635674
10	0x3f865ed6	1.0497692
11	0x3f6c980e	0.9241952
12	0x3f5accf1	0.85468966
13	0x3f8399d0	1.0281315
14	0x3f850106	1.0390937
15	0x3f5cba1c	0.8622148
16	0x3f4eb437	0.80743736
17	0x3f5cdd7c	0.8627546
18	0x3f71c199	0.9443603
19	0x3f81bd32	1.0135863
20	0x3f69e721	0.913683
21	0x3f7ae1a7	0.9800057
22	0x3f6ef617	0.93344253
23	0x3f7502f7	0.9570765
24	0x3f872fe3	1.0561489
25	0x3f8606c0	1.047081
26	0x3f7ee890	0.9957361
27	0x3f4dcb78	0.80388594
28	0x3f7ee24b	0.99564046
29	0x3f86e3f8	1.053832
30	0x3f87aeed	1.0600258
31	0x3f80607f	1.0029448

conv_block.1.bias f4 [32]
0	0xbed82de6	-0.42222518
1	0xbef62c83	-0.48080835
2	0xbef923db	-0.48660168
3	0xbea12119	-0.31470564
4	0xbdf10ca5	-0.1176999
5	0xbea1c4c4	-0.31595433
6	0xbe4b43f2	-0.19850138
7	0xbce1ee73	-0.027579522
8	0xbe8e3384	-0.27773678
9	0xbd8e5ea4	-0.06951645
10	0xbe4a0cc5	-0.19731434
11	0xbe077ae9	-0.1323048
12	0x3dd4a504	0.10383037
13	0xbe99913b	-0.29993615
14	0xbd69c6de	-0.05707442
15	0xbea9e56f	-0.33182856
16	0xbe5b7609	-0.21431746
17	0x3dae0776	0.08497517
18	0xbe9d0bda	-0.30673105
19	0xbe7fab2a	-0.24967638
20	0xbe30d1f4	-0.17267591
21	0xbeb90b1a	-0.36141282
22	0xbdbda0e3	-0.09259202
23	0xbdc93e0f	-0.0982629
24	0xbe25d7ba	-0.16195574
25	0xbe4785d3	-0.19484644
26	0xbbd38ec6	-0.006456229
27	0xbd8a6a19	-0.06758518
28	0xbe22e9d7	-0.15909515
29	0xbd3831f6	-0.04496952
30	0x3c6c9b70	0.014441356
31	0xbe58450a	-0.21120086

conv_block.1.running_mean f4 [32]
0	0x3fb3c52d	1.4044548
1	0xc081f866	-4.061572
2	0xc04f9de0	-3.244011
3	0x403d6f05	2.959901
4	0xc0eac40a	-7.3364305
5	0xc0b75c0c	-5.729986
6	0xc0c5144d	-6.158728
7	0x411ca89a	9.7911625
8	0xbf2b7602	-0.6697694
9	0xc0de8316	-6.9535017
10	0xc147829a	-12.469385
11	0x40a4871a	5.141492
12	0x3f7bcb09	0.9835668
13	0xc095628f	-4.668281
14	0xc0d7553c	-6.7291546
15	0x406e2280	3.7208557
16	0x40caa9f1	6.333245
17	0x40ce539a	6.4477053
18	0xc0145333	-2.317578
19	0xc09edd65	-4.9645257
20	0x40cfc775	6.493098
21	0xbff51542	-1.9147112
22	0x40ed4219	7.4143186
23	0xc10e0e41	-8.87848
24	0xbfea9209	-1.8325816
25	0xbfb03100	-1.3764954
26	0xc030f223	-2.7647789
27	0x40c2d160	6.0880585
28	0xc0ceb0fb	-6.459104
29	0xc125b5da	-10.356897
30	0xc07576a8	-3.8353672
31	0xc0ed1ab5	-7.40951

conv_block.1.running_var f4 [32]
0	0x42c0c055	96.37565
1	0x43e9f469	467.90945
2	0x43936454	294.7838
3	0x43a3b8d8	327.4441
4	0x443b4e6b	749.2253
5	0x43bf3a3d	382.455
6	0x43564d4c	214.30194
7	0x4432db67	715.42816
8	0x434ab5b9	202.70985
9	0x44130c0b	588.1882
10	0x44e7cf18	1854.4717
11	0x4321ace3	161.67534
12	0x41b6f85b	22.871267
13	0x436ea57d	238.64644
14	0x43d51090	426.1294
15	0x42acc053	86.37563
16	0x439f31c7	318.3889
17	0x4391618c	290.7621
18	0x43a63b5d	332.46378
19	0x431f34a3	159.20561
20	0x43a7dffd	335.7499
21	0x424f2483	51.785656
22	0x43c0fb01	385.96097
23	0x43cb9cff	407.22653
24	0x42d5d391	106.913216
25	0x4426a24d	666.53595
26	0x439797a1	303.1846
27	0x43e0bfc0	449.49805
28	0x43e8d26a	465.64386
29	0x4482f01f	1047.5038
30	0x43eb2f50	470.36963
31	0x439d9641	315.17386

conv_block.4.weight f4 [64, 32, 3, 3]
0	0x3de5ee84	0.11227134
1	0xbc867000	-0.016410828
2	0x3d6f587f	0.058434006
3	0x3dbbb169	0.09164698
4	0xbd1c7f31	-0.038207237
5	0x3e1f988a	0.15585533
6	0xbd8cc24f	-0.06872999
7	0xbdab11f5	-0.083530344
8	0x3d7abbd3	0.06121428
9	0xbcaa0bc4	-0.020757563
10	0xbd63cfed	-0.055618215
11	0xbb36935d	-0.0027858831
12	0xbcbd10e5	-0.023079345
13	0xbd96dc23	-0.073662065
14	0x3d9d2236	0.07672541
15	0xbc2b774f	-0.010465457
16	0xbc1192fe	-0.008885143
17	0x3cfcab2c	0.03084334
18	0x3def6964	0.116900235
19	0x3cd57c1e	0.02606016
20	0xbc803548	-0.015650406
21	0x3df614af	0.12015664
22	0x3d9b8cf7	0.07595246
23	0xbd6c4daa	-0.057691254
24	0x3e1cc6ad	0.15310164
25	0x3d4c5361	0.049884204
26	0xbddb979a	-0.10722275
27	0x3d90bcaa	0.07067235
28	0xbcc8ce47	-0.024512423
29	0xbd19f226	-0.037584446
30	0x3d5a5f95	0.05331381
31	0xbc33ea90	-0.010981217
32	0x3c06cc03	0.008227351
33	0xbb083fbc	-0.0020789942
34	0x3d0bd76c	0.03414099
35	0x3b7d9e3b	0.003869905
36	0xbe02d3df	-0.12776135
37	0xbb179536	-0.0023129708
38	0xbd59e8ed	-0.05320065
39	0xbdb917ea	-0.09037764
40	0x3d18bfe1	0.037292365
41	0x3cefd8e5	0.029278228
42	0xbdd0b592	-0.10190882
43	0x3d80b786	0.06285004
44	0xbba82327	-0.0051311436
45	0xbb9441e2	-0.0045244554
46	0xbcd79531	-0.026316257
47	0xbed0a494	-0.40750563
48	0x3d0c4f0d	0.034255076
49	0x3d4fb0e2	0.050705798
50	0xbeaa734d	-0.33291093
51	0xbc4909f1	-0.012270437
52	0x3c84f1e5	0.016228626
53	0xbeb0dc4a	-0.34543067
54	0xbc0d2c30	-0.008616492
55	0xbda52e0b	-0.080654226
56	0xbe232e32	-0.15935591
57	0xbd5d046f	-0.053959306
58	0xbc693003	-0.014232638
59	0xbdfc57b7	-0.12321418
60	0xbd2faf14	-0.042891577
61	0xbc39be94	-0.011336941
62	0xbdd8e84a	-0.105911806
63	0xbcfd50e7	-0.030922366
64	0x3ce92ec0	0.028464675
65	0x3d3d3568	0.04619351
66	0xbc6db16b	-0.014507632
67	0x3ca9e52d	0.020739162
68	0x3d5367a5	0.051612515
69	0x3c397112	0.011318462
70	0x3d0b2754	0.033973053
71	0x3d487ced	0.048947264
72	0x3d0537ae	0.032523803
73	0xbdbee99c	-0.09321901
74	0xbdf47639	-0.11936612
75	0x3cb52b7b	0.02211546
76	0xbdd79232	-0.105259314
77	0xbdcb2e74	-0.099209696
78	0x3d02b15d	0.031907428
79	0xbdb65fd2	-0.08904995
80	0xbda016b5	-0.07816831
81	0xbdc7cdb0	-0.09756029
82	0x3c63cab1	0.013903306
83	0xbdb2b6ae	-0.0872625
84	0xbd3d0b84	-0.04615356
85	0x3d5e6ecd	0.054304887
86	0x3d3ba567	0.045812037
87	0xbdc45136	-0.09585802
88	0x3c60a6a0	0.0137116015
89	0x3bb529f1	0.0055286814
90	0xbd8de53e	-0.0692849
91	0x3d422d8a	0.04740671
92	0x3cc9a66b	0.024615487
93	0xbced80a3	-0.028992003
94	0x374093f3	1.1478539e-05
95	0x3d865d4b	0.06560763
96	0xbd8b4d79	-0.06801886
97	0xbbc3d684	-0.0059765
98	0xbc8cf973	-0.01720879
99	0xbccb626a	-0.0248272
100	0x3c03577f	0.008016466
101	0x3cc53b2a	0.024076063
102	0xbde45ac1	-0.111501224
103	0xbc59d837	-0.013296179
104	0x3d2acbdb	0.041698318
105	0xbce34460	-0.027742565
106	0xbd91477b	-0.07093712
107	0x3ca91cb6	0.020643573
108	0xbc5985a6	-0.013276493
109	0x3ca454d2	0.020059977
110	0x3c7c431a	0.015396858
111	0x3d0f8cf4	0.035046533
112	0xbcf43be5	-0.029813716
113	0xbd33894f	-0.04383212
114	0x3d1916b8	0.037375182
115	0x3c96c25f	0.01840323
116	0xbd322379	-0.04349086
117	0x3c27f34f	0.01025088
118	0xbd09f186	-0.0336776
119	0xbcdb8a72	-0.026799414
120	0xbdc0eeeb	-0.0942057
121	0x3b880723	0.0041512414
122	0xbd659ed9	-0.056059692
123	0xbb17a058	-0.0023136344
124	0x3d8159ea	0.06315978
125	0xbd4ab84f	-0.049492177
126	0xbd5c6d11	-0.05381495
127	0x3d34e866	0.044166945
128	0x3d241f14	0.0400687
129	0x3cc29863	0.023754304
130	0x3da064bf	0.07831716
131	0x3d18d7b4	0.037315086
132	0x3b480eb9	0.0030526354
133	0x3d1b90c4	0.037979856
134	0x3d84028f	0.064458005
135	0xbccabf53	-0.024749434
136	0xbdd1affd	-0.10238645
137	0x3caae89c	0.02086287
138	0xbd851491	-0.06498063
139	0x3a9a6ea8	0.0011782246
140	0x3ad0f80c	0.0015943064
141	0xbd08ffb0	-0.033446968
142	0x3d233dd9	0.039853904
143	0x3d7d5983	0.061852943
144	0xbca2f5db	-0.019892624
145	0x3d91fcae	0.07128273
146	0xbcf38786	-0.029727709
147	0xbd0f2c3b	-0.03495429
148	0x3c783f16	0.01515176
149	0xbd6bb8a7	-0.057549145
150	0xbc141a64	-0.009039495
151	0xbdde3f03	-0.10851862
152	0xbe16f4b7	-0.14741789
153	0xbc9a0a8b	-0.018803855
154	0xbcc2e279	-0.023789631
155	0xbcb24cf1	-0.021765204
156	0xbcd3a58d	-0.025835777
157	0xbd1fb3d5	-0.03898986
158	0x3c3b1ab2	0.011419939
159	0x3cd8dfd4	0.026473917
160	0xbc677681	-0.014127375
161	0x3ce071bb	0.02739798
162	0x3d4d7b11	0.050166193
163	0xbdadc3aa	-0.084845856
164	0xbdf79f9b	-0.12090989
165	0x3dd6aeb5	0.104825415
166	0xbd7e3275	-0.06205984
167	0xbdf1dfad	-0.11810241
168	0x3dd8077d	0.10548303
169	0xbd5e220e	-0.054231696
170	0xbe1e6fae	-0.1547229
171	0xbdab706a	-0.08371051
172	0x3d8ef0f6	0.069795534
173	0xbd9d2a1a	-0.07674046
174	0xbdc702ee	-0.09717356
175	0x3babd26c	0.00524359
176	0xbddbfb0c	-0.10741243
177	0xbd8505ac	-0.064952224
178	0xbc9fb84d	-0.019497061
179	0xbdcf7a62	-0.101307645
180	0xbc5f48b9	-0.013628178
181	0xbc73e6af	-0.014886542
182	0xbcd8be8c	-0.026458047
183	0xbd5f108c	-0.05445914
184	0xbcc3fab4	-0.023923256
185	0xbd04c436	-0.032413684
186	0x3c124e82	0.0089298505
187	0x3caa3759	0.020778345
188	0xbbb21dc2	-0.0054356763
189	0xbda3c34a	-0.07996233
190	0xbd33496b	-0.04377119
191	0x3ca8235e	0.020524677
192	0xbc93af6a	-0.01802798
193	0x3d72caec	0.059275553
194	0x3d76a0e1	0.06021202
195	0x3cb3a2cc	0.021928214
196	0x3b9a6e8b	0.004712885
197	0x3c7e4f3d	0.015521822
198	0xbcaefc9e	-0.021360692
199	0x3c1d579b	0.009603406
200	0x3c7be50b	0.015374432
201	0xbc64b5c7	-0.013959355
202	0xbd2cbd70	-0.04217285
203	0x3d2994b2	0.041401573
204	0x3c690c61	0.014224143
205	0xbc20e318	-0.009819768
206	0x3d888343	0.06665661
207	0x3bcb8186	0.0062105088
208	0xbce2ae64	-0.027671047
209	0xbe2f07eb	-0.17092864
210	0xbd90ba16	-0.07066743
211	0x3d1d4bf4	0.038402513
212	0xbe08edb9	-0.13371934
213	0xbd1de64d	-0.03854971
214	0xbc819bf3	-0.015821433
215	0xbdd59687	-0.104291014
216	0x3cc6718d	0.024224067
217	0xbd0f5a11	-0.034998003
218	0xbd082c94	-0.033245638
219	0x3cd6f821	0.026241364
220	0x3b6b8e1a	0.0035942853
221	0x3d245b22	0.040125974
222	0xbd592ca4	-0.05302109
223	0xbbcb74e5	-0.0062090033
224	0x3d4de22f	0.050264534
225	0x3d9fd93c	0.07805106
226	0xbe00a5ed	-0.12563296
227	0xbdee0210	-0.11621487
228	0x3da0df73	0.078551196
229	0xbdd88359	-0.105719276
230	0xbe901bbe	-0.28146166
231	0x3dc57d14	0.096429974
232	0xbd5fd4da	-0.05464635
233	0xbe3eb3e5	-0.18623312
234	0xbbb8d53f	-0.0056406553
235	0xbd02e8d3	-0.03196032
236	0xbb89b7f7	-0.0042028385
237	0xbdbc633c	-0.09198615
238	0xbdb8cf62	-0.0902393
239	0xbc0ef913	-0.008726376
240	0xbd4f011d	-0.05053817
241	0xbdbd20b0	-0.0923475
242	0x3cda4cd4	0.026647963
243	0x3d774511	0.0603686
244	0x3b4c343d	0.0031159066
245	0x3b1eec0d	0.0024249584
246	0x3d0f74de	0.035023563
247	0x3d7a55fb	0.061117154
248	0xbd3321bd	-0.043733347
249	0x3cef775d	0.029231722
250	0x3cd848bd	0.026401872
251	0x3b935d26	0.004497188
252	0xbd4ddd04	-0.050259605
253	0xbcaceb9b	-0.02110844
254	0x3d3319ff	0.043725964
255	0xbde6e743	-0.112745784

conv_block.4.bias f4 [64]
0	0x3dbc7410	0.09201825
1	0xbcef5c56	-0.029218834
2	0x3d989272	0.07449807
3	0x3d65d0c9	0.056107316
4	0xbe10671b	-0.14101832
5	0x3c4f3041	0.012645782
6	0xbdfcd2fb	-0.12344929
7	0xbd4325dc	-0.047643527
8	0x3d8693a7	0.06571131
9	0xbd383ca7	-0.044979718
10	0xbc87c32d	-0.01657256
11	0x3d8d5d60	0.069025755
12	0xbb967694	-0.0045917723
13	0xbd45fc58	-0.048336357
14	0xbdba29ad	-0.0908998
15	0xbdac7d6b	-0.08422359
16	0xbd42890f	-0.04749399
17	0xbcb5556e	-0.022135463
18	0x3d6ebc1a	0.058284856
19	0x3d806496	0.06269185
20	0xbd0aa001	-0.033843998
21	0xbd1d4dee	-0.038404398
22	0x3ce2637f	0.027635334
23	0xbd993ff1	-0.07482899
24	0xbd0d7c6d	-0.03454249
25	0x3af78722	0.0018884877
26	0xbcb84b6a	-0.022496898
27	0x3cba42d5	0.022736946
28	0x3b5f6d9a	0.0034092427
29	0x3d1a9d45	0.03774764
30	0xbd602c61	-0.054729823
31	0xbd0eeb72	-0.034892507
32	0xbcdd5e24	-0.027022429
33	0x3d5506b2	0.05200834
34	0xbd45914a	-0.04823426
35	0xbd7778da	-0.060417987
36	0x3dbf4147	0.093386225
37	0x3c1bd560	0.009511322
38	0xbd2f4c46	-0.04279735
39	0xbd240cc4	-0.040051237
40	0x3b520af4	0.0032049986
41	0x3c4e78f2	0.012602078
42	0x3d0a0d07	0.03370383
43	0x3dc24382	0.09485532
44	0xbdbf9f19	-0.09356517
45	0x3d9b31c2	0.0757785
46	0xbda58c79	-0.08083434
47	0xbe1c16d4	-0.15243083
48	0x3bc31027	0.0059528532
49	0xbd9e3f13	-0.07726874
50	0xbd69eb20	-0.057109
51	0x3d8d3e60	0.06896663
52	0x3d7f2e6b	0.062300127
53	0xbcbc7fb3	-0.02301011
54	0x39ac9a68	0.00032921438
55	0x3d23938f	0.039935645
56	0xbd521d85	-0.051297683
57	0xbd5f877b	-0.054572564
58	0xbe1c5bf4	-0.15269452
59	0x3d92add1	0.07162059
60	0xbd0aaac0	-0.033854246
61	0x3db39f3f	0.08770608
62	0xbd255021	-0.04035962
63	0x3e04562c	0.12923497

conv_block.5.weight f4 [64]
0	0x3f78fdfa	0.9726254
1	0x3f916712	1.135958
2	0x3f83ef0d	1.0307328
3	0x3f713d99	0.94234616
4	0x3f845680	1.0338898
5	0x3f71d6fb	0.9446866
6	0x3f767de7	0.9628586
7	0x3f86f04c	1.0542083
8	0x3f6aea17	0.9176344
9	0x3f71e7b1	0.9449416
10	0x3f68b231	0.908969
11	0x3f777406	0.9666141
12	0x3f7cb58d	0.98714525
13	0x3f5d449e	0.86432827
14	0x3f71d870	0.9447088
15	0x3f7cfcaf	0.98823065
16	0x3f7e3d95	0.99312717
17	0x3f7731a9	0.9656015
18	0x3f80ebfa	1.0072014
19	0x3f84a964	1.0364194
20	0x3f7a5843	0.97790927
21	0x3f82a62e	1.0206964
22	0x3f7989fe	0.97476184
23	0x3f619526	0.8811821
24	0x3f7909c7	0.97280544
25	0x3f6f053f	0.9336738
26	0x3f806177	1.0029744
27	0x3f640009	0.89062554
28	0x3f8a92d8	1.0826063
29	0x3f821755	1.016337
30	0x3f7d2614	0.9888623
31	0x3f6ee4fc	0.9331815
32	0x3f84c518	1.0372648
33	0x3f6c7e4f	0.9238023
34	0x3f504776	0.8135904
35	0x3f795cf5	0.97407466
36	0x3f7223ef	0.9458608
37	0x3f6c0b98	0.9220519
38	0x3f716205	0.9429019
39	0x3f799c78	0.9750438
40	0x3f6eaf28	0.9323602
41	0x3f6fa87d	0.9361647
42	0x3f833c0d	1.0252701
43	0x3f72a5b8	0.94784117
44	0x3f7d5b54	0.9896748
45	0x3f709e65	0.9399169
46	0x3f6873b8	0.9080157
47	0x3f69e2fc	0.91361976
48	0x3f7bf70f	0.98423856
49	0x3f71f50c	0.94514537
50	0x3f6e3280	0.93045807
51	0x3f6e1561	0.9300137
52	0x3f7e0cdc	0.9923837
53	0x3f85f8a9	1.046651
54	0x3f766127	0.9624199
55	0x3f83f6cc	1.0309691
56	0x3f7bcabd	0.9835623
57	0x3f773afc	0.9657438
58	0x3f751abd	0.95743924
59	0x3f744e2a	0.9543177
60	0x3f6c4299	0.9228912
61	0x3f627285	0.8845599
62	0x3f669ad6	0.9008001
63	0x3f86126c	1.0474372

conv_block.5.bias f4 [64]
0	0xbe5a4daf	-0.21318696
1	0xbddb12e7	-0.10696965
2	0x3b93be75	0.004508788
3	0xbdd99a94	-0.106251866
4	0xbdcb3305	-0.099218406
5	0xbe7407e5	-0.23831137
6	0xbe88f49d	-0.26749125
7	0xbe417912	-0.18893841
8	0xbe7e2a45	-0.24820812
9	0xbe13ce15	-0.14434083
10	0xbeb3461c	-0.35014427
11	0xbde1e76b	-0.110304676
12	0xbe8ce17e	-0.27515787
13	0xbebd4994	-0.36970198
14	0xbe9646cf	-0.29350898
15	0x3dfe0be4	0.12404612
16	0xbbbcc670	-0.0057609603
17	0xbe84e784	-0.25957882
18	0xbe08caee	-0.13358662
19	0xbd92162e	-0.07133137
20	0xbe15b53d	-0.14619918
21	0xbdfb6175	-0.12274448
22	0xbe358751	-0.177274
23	0xbdf22067	-0.118225865
24	0xbe0a6cab	-0.13518016
25	0xbe8a5dde	-0.2702474
26	0x3d983ed1	0.07433856
27	0xbeccc19d	-0.39991465
28	0xbde3e296	-0.11127202
29	0xbdfeee3d	-0.12447784
30	0xbd6b0b68	-0.057383925
31	0xbe7267d1	-0.23672415
32	0x3d7fb8b7	0.062432017
33	0xbecf8f5c	-0.40539062
34	0xbe45a125	-0.19299753
35	0xbe8f8ca8	-0.28037
36	0xbe100c34	-0.14067155
37	0xbea9b999	-0.33149412
38	0xbe3d9d62	-0.18517068
39	0xbe3b29ce	-0.18277666
40	0xbe555caa	-0.2083613
41	0xbe2eb1c1	-0.17059995
42	0xbd8cfede	-0.068845496
43	0xbe9819ca	-0.29707175
44	0xbe8ab3e7	-0.2709038
45	0xbea54f31	-0.3228698
46	0xbe430302	-0.19044116
47	0xbe6773e5	-0.22602804
48	0xbe6a67e5	-0.22891195
49	0xbe737444	-0.2377482
50	0xbea2714e	-0.3172707
51	0xbe1d49eb	-0.15360229
52	0xbdae3a33	-0.08507194
53	0xbdcd5782	-0.100264564
54	0xbd3c04c8	-0.045902997
55	0xbd8bd830	-0.06828344
56	0xbe4b5f70	-0.19860625
57	0xbe030a85	-0.12796982
58	0xbe99cede	-0.3004064
59	0xbe97eab3	-0.2967125
60	0xbe4ee49b	-0.20204394
61	0xbea86c09	-0.32894924
62	0xbebae36a	-0.36501628
63	0xbcaf5eb4	-0.021407463

conv_block.5.running_mean f4 [64]
0	0xbfcf8796	-1.6213253
1	0xc0439a70	-3.056301
2	0xc01c61f6	-2.443479
3	0xbfce4879	-1.6115867
4	0xc02657ca	-2.5991082
5	0xc00612a6	-2.0948882
6	0xbffc5794	-1.9714227
7	0xc035fc67	-2.8435304
8	0xbfff0f02	-1.9926455
9	0xbfc79abc	-1.5594096
10	0xc0280545	-2.6253216
11	0xbf9b877d	-1.2150723
12	0xc04493d4	-3.0715227
13	0xbf23ebdd	-0.64031774
14	0xbfdfaec2	-1.7475207
15	0xc075e564	-3.842126
16	0xc0225846	-2.5366378
17	0xbff22d54	-1.8920083
18	0xc01fdbfd	-2.497802
19	0xc0107875	-2.257352
20	0xbfea15da	-1.8287919
21	0xbff5457c	-1.916183
22	0xbfb59da9	-1.4188739
23	0xbe568d5a	-0.20952359
24	0xbfbf97bc	-1.4968181
25	0xc00d82e1	-2.2111132
26	0xc055db2f	-3.341503
27	0xc01f152e	-2.4856677
28	0xc036dc49	-2.8571951
29	0xc007e37c	-2.1232595
30	0xc01dc47c	-2.4651175
31	0xbfb5590a	-1.4167798
32	0xc05ae984	-3.4205027
33	0xc0110917	-2.2661798
34	0xbef6c65f	-0.4819822
35	0xc003a54f	-2.0569646
36	0xbfa6c1ff	-1.3027953
37	0xbfc9161d	-1.5709873
38	0xc008de6e	-2.138576
39	0xbfce6eaf	-1.6127528
40	0xc019b8c2	-2.4019017
41	0xbfa63116	-1.298373
42	0xbfeac295	-1.8340632
43	0xbfd1cc79	-1.6390525
44	0xbfd51c97	-1.664935
45	0xc016e152	-2.3575025
46	0xbf9952b2	-1.1978362
47	0xc0142674	-2.314847
48	0xbf2287f7	-0.63488716
49	0xc05e1ef4	-3.4706392
50	0xc0162bce	-2.3464236
51	0x3f1ac4b4	0.60456395
52	0xbf9b5bf0	-1.2137432
53	0xc00e1f5e	-2.2206645
54	0x3eaa1652	0.33220154
55	0xc03648e1	-2.8481982
56	0xbeb04c80	-0.34433365
57	0x3c71d91c	0.014761236
58	0xc00f7729	-2.241648
59	0xbfd24b46	-1.6429222
60	0x3ef15e47	0.4714224
61	0xbff8989d	-1.9421574
62	0xc0080b6a	-2.1256967
63	0xc00bbbe6	-2.1833434

conv_block.5.running_var f4 [64]
0	0x40832b38	4.0990257
1	0x40e60244	7.1877766
2	0x40ac6ce8	5.388294
3	0x409da871	4.9268117
4	0x40b9f712	5.81141
5	0x40ce9a01	6.4562993
6	0x40f58297	7.672191
7	0x40aa6db6	5.3258924
8	0x409aebad	4.841269
9	0x40896c26	4.2944517
10	0x41140af9	9.252679
11	0x4098663b	4.7624793
12	0x41046b6d	8.276227
13	0x3fb12814	1.3840356
14	0x40b27d70	5.577812
15	0x41321688	11.130501
16	0x40c0b1cd	6.021704
17	0x406dcce6	3.715631
18	0x411550ce	9.332228
19	0x40b3fcb5	5.624598
20	0x4084f5de	4.155013
21	0x407d23c6	3.9553084
22	0x4086b162	4.209153
23	0x401f423d	2.4884179
24	0x4070c28d	3.7618744
25	0x40d87b89	6.76508
26	0x411c24ea	9.759012
27	0x40a9889e	5.297927
28	0x40b3e934	5.622217
29	0x40997337	4.7953143
30	0x4129a0c4	10.601749
31	0x40a71bda	5.22215
32	0x4130aa10	11.041519
33	0x40ab53a9	5.3539624
34	0x402250b6	2.5361762
35	0x406d1f45	3.7050335
36	0x400cd0d5	2.200246
37	0x408226cf	4.0672374
38	0x409c76cc	4.8895016
39	0x40cc4ec1	6.3846135
40	0x40ad7f53	5.4217925
41	0x4081970f	4.04969
42	0x40c65e95	6.1990457
43	0x40cbe4db	6.3716865
44	0x4087540d	4.22901
45	0x40dc2ec3	6.880708
46	0x403678b7	2.8511178
47	0x410db4ca	8.856638
48	0x3fe2d1cd	1.7720276
49	0x40e450ab	7.134847
50	0x40867045	4.201205
51	0x3fd35019	1.6508819
52	0x405fd43c	3.4973288
53	0x40b14052	5.5391016
54	0x404e8bde	3.2272868
55	0x40d0fc71	6.5308156
56	0x4004b7b3	2.073712
57	0x3ffa0a4b	1.9534391
58	0x40cd01c5	6.406466
59	0x40890917	4.2823596
60	0x403fba4a	2.9957452
61	0x40878a36	4.2356215
62	0x4079a2d5	3.9005635
63	0x40edb641	7.428498

conv_block.8.weight f4 [128, 64, 3, 3]
0	0xbcca1867	-0.02466984
1	0xbdcc3e5e	-0.09972833
2	0xbdf69cd3	-0.120416306
3	0xbd8af3c6	-0.06784777
4	0xbdd900bf	-0.105958454
5	0xbe00beb0	-0.12572742
6	0xbd1563c0	-0.036472082
7	0xbdaa3260	-0.083103895
8	0xbdf57686	-0.11985497
9	0xbd21f00c	-0.039535567
10	0x3d314ae0	0.043284297
11	0xbab42ce2	-0.0013746286
12	0xbd28fcec	-0.04125683
13	0x3d0934a8	0.033497483
14	0xbd099786	-0.03359177
15	0xbc5512d3	-0.013004976
16	0x3d9b2cd7	0.07576912
17	0x3d157c0b	0.03649525
18	0x3c69f6e6	0.014280057
19	0x3dd27d71	0.10277832
20	0x3d1b4b7e	0.03791379
21	0xbc5a3006	-0.013317114
22	0x3d9bc4f8	0.07605928
23	0x3d037244	0.032091394
24	0x3ab8fe80	0.0014113933
25	0x3dee1544	0.1162515
26	0x3d9a54d2	0.075357094
27	0xbc1b117d	-0.009464619
28	0x3d05c95c	0.032662734
29	0xbd3b5d61	-0.04574335
30	0xbd5dd89d	-0.054161657
31	0xbd0e4789	-0.03473619
32	0xbde3fe93	-0.111325406
33	0xbd2cc7f6	-0.042182885
34	0x3d15da40	0.036585093
35	0xbda5e936	-0.08101122
36	0xbc03f2c0	-0.008053482
37	0x3d8579e9	0.06517393
38	0x3d80cd8a	0.062892035
39	0xbd886580	-0.066599846
40	0x3ced563a	0.02897178
41	0x3cc775f3	0.024348235
42	0x3c848d73	0.01618073
43	0x3dde48b7	0.10853713
44	0x3de10ae5	0.10988406
45	0x3c7aac10	0.015299812
46	0xbd922923	-0.071367525
47	0xbd72004d	-0.059082318
48	0xbd16ecba	-0.036846854
49	0xbdac2542	-0.08405544
50	0xbd80b908	-0.06285292
51	0x3bd2004b	0.0064087263
52	0xbde3df55	-0.111265816
53	0xbd0172db	-0.031603675
54	0xbb85a2bc	-0.0040782373
55	0xbdbe4884	-0.09291175
56	0xbdcb6711	-0.09931768
57	0xbd255cde	-0.04037177
58	0xbdf06907	-0.117387824
59	0xbddca5bd	-0.107737996
60	0xba8f56ba	-0.0010935881
61	0xbdefb5ba	-0.117045835
62	0xbdc1fff5	-0.09472648
63	0x3cceedf2	0.025259946
64	0x3dd4ecf3	0.10396757
65	0x3d7ea893	0.062172484
66	0xb9b923a7	-0.00035312513
67	0x3de5b6a8	0.112164795
68	0x3cd7c0ab	0.026336988
69	0x3ccab6b3	0.02474532
70	0x3df069ac	0.11738905
71	0x3c946746	0.01811565
72	0xbd0f5b0c	-0.03499894
73	0xbe07b6b4	-0.1325329
74	0xbd6c524b	-0.05769567
75	0xbd579773	-0.052634668
76	0xbddbb30f	-0.10727512
77	0xbcdc7987	-0.026913418
78	0x3c10e62c	0.00884394
79	0xbdc677a7	-0.096907906
80	0xbc240242	-0.010010304
81	0x3d37274c	0.04471521
82	0xbd5fd61e	-0.054647557
83	0xbc628ec0	-0.01382798
84	0x3cc1f2a8	0.023675278
85	0xbde311a3	-0.11087348
86	0xbd4221f0	-0.047395647
87	0x3c669eef	0.014075979
88	0xbe02c382	-0.12769893
89	0xbdd84d74	-0.10561648
90	0x3cb0c320	0.021577418
91	0xbd51394c	-0.051080033
92	0xbe43e2c8	-0.19129479
93	0xbcd71025	-0.026252815
94	0xbde1c966	-0.11024742
95	0xbe542981	-0.20718957
96	0xbccd5ff5	-0.02507017
97	0xbdc39bdc	-0.09551212
98	0xbe47744b	-0.19477956
99	0xbbf57ad1	-0.0074914475
100	0xbcdbe61c	-0.026843123
101	0x3c93d89a	0.01804762
102	0xbd3a67de	-0.04550921
103	0xbd80e17c	-0.06293008
104	0xbd529337	-0.051409926
105	0xbbd7a988	-0.006581489
106	0xbd2f6cd0	-0.04282838
107	0xbd238a12	-0.039926596
108	0x3d05ff32	0.032714076
109	0x3e13be58	0.14428079
110	0x3de88264	0.11352995
111	0xbbfba052	-0.007679024
112	0x3dccfaa1	0.10008741
113	0x3d03f633	0.032217216
114	0x3d61e1bc	0.055146918
115	0x3e20ca6d	0.1570222
116	0x3df798dd	0.12089703
117	0x3d9e4e8d	0.07729826
118	0xbd865fd6	-0.06561248
119	0xbd3c64ed	-0.045994688
120	0x3dde1e3a	0.10845609
121	0xbd91253a	-0.070871785
122	0xbb657dcb	-0.0035017605
123	0x3d1278e9	0.03575984
124	0xbd2e56e0	-0.04256332
125	0xbd44e371	-0.048068468
126	0xbb147fb5	-0.0022659127
127	0xbcbb11c1	-0.022835614
128	0xbde07af7	-0.10960954
129	0xbd32a546	-0.04361465
130	0xbd13e388	-0.036105663
131	0xbe1b24b7	-0.15150724
132	0xbc46951d	-0.012120512
133	0xbcd1d166	-0.025612544
134	0xbdfe7e91	-0.124264844
135	0x3d251c5f	0.04031026
136	0x3dd5f3bf	0.104468815
137	0x3cb62e26	0.022238802
138	0x3c23b148	0.009990998
139	0x3d937ebb	0.07201906
140	0xba201eab	-0.00061080855
141	0x3d371e6f	0.044706758
142	0x3d9ab6d0	0.075544
143	0x3d21ff03	0.03954984
144	0xbcd54e24	-0.026038237
145	0x3d4aac1a	0.049480535
146	0x3c7cc813	0.015428561
147	0xbd008d01	-0.03138447
148	0x3c161c57	0.00916203
149	0xbd6362b9	-0.05551407
150	0xbc1276c8	-0.0089394525
151	0x3d005aac	0.03133647
152	0xbbaf7399	-0.0053543565
153	0xba2283c1	-0.00061994424
154	0xbc97588c	-0.01847484
155	0x3ba3ab15	0.00499476
156	0xbd15aa46	-0.03653934
157	0xbbf8c9a7	-0.007592398
158	0xbca954a1	-0.020670237
159	0xbc07c25b	-0.008286084
160	0x3c07b28d	0.008282316
161	0x3c729f5b	0.014808501
162	0xbdb69be7	-0.08916455
163	0x3cf7e9bb	0.030262819
164	0xbd24a19c	-0.040193185
165	0xbe17ea44	-0.14835459
166	0xbbc1465c	-0.00589828
167	0xbdbebe2e	-0.09313618
168	0xbdae1e87	-0.085019164
169	0x3d55ca24	0.05219473
170	0xbd0eefbc	-0.034896597
171	0xbd1b0a18	-0.037851423
172	0x3d392d5b	0.04520927
173	0xbc400dde	-0.011722056
174	0xbd5cc533	-0.053899
175	0x3d5312cb	0.051531594
176	0xbc0c4557	-0.008561454
177	0xbd8f867f	-0.07008075
178	0x3cadcb6c	0.021215163
179	0x3be47f68	0.006973196
180	0x3ce0fbb5	0.027463773
181	0xbc9b8d5a	-0.0189883
182	0xbdc453cc	-0.095862955
183	0x3c44c970	0.012010917
184	0xbb7445f3	-0.0037273138
185	0xbded5c54	-0.11589876
186	0x3ce183c0	0.027528644
187	0xbd02ac2a	-0.03190247
188	0xbdb9c5fe	-0.09070967
189	0xbd10f794	-0.03539236
190	0x3dc14730	0.09437406
191	0x3c9469d7	0.018116875
192	0xbd915f55	-0.07098261
193	0x3d6e1eb5	0.058134753
194	0xb96849e2	-0.00022152768
195	0xbc78835c	-0.015168037
196	0x3db86e42	0.09005405
197	0x3b39803a	0.0028305189
198	0xbc720189	-0.014770874
199	0xbcc2320d	-0.023705507
200	0xbccf0b82	-0.025274042
201	0x3b0d544f	0.0021565144
202	0xbcadf30b	-0.021234056
203	0xbd46580f	-0.048423823
204	0x3d0a3683	0.033743393
205	0xbcb95682	-0.022624258
206	0xbd80900f	-0.06277477
207	0xbcb5304a	-0.022117753
208	0xbca464f0	-0.020067662
209	0xbd305191	-0.043046538
210	0xbd9dbc3a	-0.07701917
211	0xbdbe77b7	-0.093001775
212	0xbde18f20	-0.11013627
213	0xbc316cf8	-0.010829203
214	0xbd0e2012	-0.034698553
215	0xbd527a03	-0.05138589
216	0x3c5688d8	0.0130941495
217	0xbc7420c7	-0.014900393
218	0xbcc816a2	-0.024424855
219	0xbc95704b	-0.018242022
220	0xbd98d9c3	-0.0746341
221	0xbd141bb4	-0.036159232
222	0xbb93bbaf	-0.0045084576
223	0xbc6b1c1f	-0.014349966
224	0x3cdad662	0.026713554
225	0x3cca5f14	0.02470354
226	0xbd15a333	-0.036532592
227	0xbe36ac8c	-0.17839259
228	0x3ba5a6d0	0.005055286
229	0xbd2a208e	-0.041534953
230	0xbe28b5fa	-0.16475669
231	0x3d8367d9	0.06416292
232	0xbcf5e544	-0.030016549
233	0xbe2824a7	-0.16420232
234	0x3ce10938	0.027470216
235	0x3dc93518	0.0982458
236	0x3d1bc986	0.038033985
237	0x3be62639	0.0070235995
238	0x3da1bc3b	0.0789723
239	0x3d2ee7fc	0.042701706
240	0x3cfcf4de	0.03087848
241	0x3d9f1810	0.077682614
242	0x3d8f764c	0.07004985
243	0xbdc0a094	-0.09405628
244	0xbe087f9e	-0.13329932
245	0xbe30ee80	-0.1727848
246	0xbda8c705	-0.08241085
247	0xbe0a5f1a	-0.13512841
248	0xbe1e6068	-0.15466464
249	0xbdc17dcb	-0.09447821
250	0xbe12c8b7	-0.14334379
251	0xbe10442a	-0.14088503
252	0x3c9c5ac7	0.019086255
253	0x3daeaaff	0.08528709
254	0x3d64f6d4	0.055899456
255	0xbd2ca7ca	-0.042152204

conv_block.8.bias f4 [128]
0	0xbc51c0fc	-0.012802359
1	0x3cedf44f	0.02904716
2	0xbd8c1b60	-0.06841159
3	0x3bf1c1ee	0.0073778545
4	0xbbed5e14	-0.007243881
5	0xbcbabbec	-0.022794686
6	0x3d146c74	0.03623624
7	0xbd82110e	-0.06350909
8	0xbcce522e	-0.02518567
9	0xbd10aedf	-0.03532302
10	0xbba0a89d	-0.004902913
11	0xbc47261e	-0.012155084
12	0x3dafd10d	0.08584795
13	0x3daa4dfb	0.08315655
14	0xbc2e29cb	-0.010630081
15	0x3d550997	0.0520111
16	0x3d017aec	0.031611368
17	0xbc14a0fc	-0.009071585
18	0x3c229128	0.009922303
19	0x3d1b3331	0.037890617
20	0xbc254229	-0.010086575
21	0x3b4d5002	0.0031328206
22	0x3c3539fe	0.01106119
23	0xbd1d35c0	-0.038381338
24	0xbd027b14	-0.031855658
25	0xbcd8f75d	-0.02648514
26	0x3bb41d48	0.0054966547
27	0x3d6c28f1	0.057656232
28	0xbb06c922	-0.0020566662
29	0x3cb0865f	0.021548448
30	0xbbead945	-0.007167014
31	0xbd0f91b3	-0.03505106
32	0x3cdd567b	0.027018776
33	0xbd4cb09e	-0.049973123
34	0xbc52e119	-0.01287105
35	0x3c5e7a65	0.013578986
36	0xbcda811f	-0.026672898
37	0x3bd8470b	0.006600266
38	0x3c69afaa	0.014263073
39	0xbd3cdd01	-0.046109203
40	0xbb0d8fee	-0.0021600681
41	0xbd8f5e90	-0.07000458
42	0x3c6bd01c	0.014392879
43	0x3c9cc138	0.019135103
44	0xbd867d3f	-0.065668575
45	0x3d8b7f34	0.068113714
46	0x3d1c52fb	0.038165074
47	0x3d21016e	0.039308004
48	0xbbf77b08	-0.0075525083
49	0x3c935fc8	0.017990008
50	0xbc8e0710	-0.017337352
51	0xbd3f1d73	-0.046658944
52	0x3d38d290	0.045122683
53	0x3cafe3c0	0.021470904
54	0xbd5ce578	-0.053929776
55	0x3dcb821f	0.09936928
56	0xbca1559a	-0.019694138
57	0xbd798a5f	-0.060922977
58	0x3cce5c6c	0.025190555
59	0xbc19027f	-0.009338974
60	0x3d74ee63	0.059797656
61	0xbce1b7cf	-0.027553467
62	0x3c9b7ba5	0.018979857
63	0xbd041f50	-0.032256424
64	0xbc78e27b	-0.015190716
65	0xbbb774db	-0.005598647
66	0x3cb2bca6	0.02181847
67	0xbd4d4320	-0.050112844
68	0x3c79c6c1	0.0152451405
69	0x3d879f84	0.06622222
70	0x3b8c1f9e	0.00427623
71	0x3c6aacca	0.014323423
72	0x3d2db7ba	0.042411543
73	0x3c6a9649	0.014318057
74	0x3d3490f8	0.044083565
75	0x3c8785a7	0.016543223
76	0xbd1c9bc0	-0.038234472
77	0x3c624c99	0.013812208
78	0x3d6fcb44	0.05854346
79	0xbd23f334	-0.04002686
80	0xbbf8fcde	-0.0075985035
81	0xbcfb882b	-0.030704578
82	0x3bf1a0f9	0.0073739258
83	0xbc9809c8	-0.018559352
84	0x3d2b4f44	0.04182364
85	0x3cebe5d8	0.028796121
86	0xbca8e4ec	-0.020616971
87	0xbc177fc5	-0.009246771
88	0xbdb64705	-0.08900265
89	0xbc35c58b	-0.011094461
90	0x3d3f3463	0.04668082
91	0x3d061a7f	0.032740112
92	0x3c930456	0.017946403
93	0x3d366665	0.044531245
94	0x3c68f84a	0.014219353
95	0xbcd674f0	-0.026178807
96	0x3d479502	0.04872609
97	0xbcf601eb	-0.030030211
98	0x3b2f39de	0.0026737372
99	0x3d301669	0.042990122
100	0xbb64ae94	-0.0034894096
101	0x3cf32ada	0.02968352
102	0x3d5ce952	0.05393345
103	0x3cd1a660	0.02559203
104	0x3cf5c70f	0.030002145
105	0x3cd11873	0.025524354
106	0xbc0a0a25	-0.00842527
107	0x3cacf195	0.021111289
108	0xbc8540d1	-0.016266258
109	0x3cd3086e	0.025760856
110	0xbcf500d6	-0.029907625
111	0xbc8fcbb8	-0.017553195
112	0xbc6e9ffb	-0.0145645095
113	0xbd40954e	-0.047017388
114	0xbc4b2a5a	-0.012400234
115	0x3d707424	0.05870451
116	0x3ca794ff	0.020456789
117	0x3d1ae4bc	0.037815794
118	0x3d8b5a88	0.06804377
119	0x3d5f7228	0.054552227
120	0xbd97af10	-0.074064374
121	0xbd1712c8	-0.036883146
122	0xbd789bb1	-0.060695354
123	0xbd81d93e	-0.06340264
124	0xbd561649	-0.052267347
125	0x3d57cf13	0.052687716
126	0x3d25bb75	0.040461976
127	0x3cc87aff	0.024472712

conv_block.9.weight f4 [128]
0	0x3f833f50	1.0253696
1	0x3f85b8a8	1.0446978
2	0x3f86e9c9	1.0540096
3	0x3f863fd4	1.0488229
4	0x3f87116e	1.0552194
5	0x3f8756b8	1.057334
6	0x3f87a589	1.0597392
7	0x3f880d35	1.062903
8	0x3f853308	1.0406199
9	0x3f889482	1.0670321
10	0x3f873807	1.0563973
11	0x3f8706d5	1.054896
12	0x3f83da13	1.0300926
13	0x3f812002	1.0087893
14	0x3f855971	1.041792
15	0x3f841532	1.0318968
16	0x3f8a2157	1.0791425
17	0x3f86a644	1.051949
18	0x3f85c20e	1.0449846
19	0x3f87328a	1.0562298
20	0x3f8905cb	1.0704893
21	0x3f85def3	1.0458664
22	0x3f86c95c	1.05302
23	0x3f8525ed	1.0402199
24	0x3f86cee1	1.0531884
25	0x3f880145	1.0625387
26	0x3f80a4ab	1.0050253
27	0x3f87f72f	1.062231
28	0x3f8514b2	1.0396941
29	0x3f890a08	1.0706186
30	0x3f87bab6	1.0603855
31	0x3f8785b8	1.0587683
32	0x3f82ad2e	1.02091
33	0x3f87c19c	1.060596
34	0x3f8c2588	1.0948954
35	0x3f87886e	1.058851
36	0x3f87d7a2	1.0612681
37	0x3f85da04	1.0457158
38	0x3f8207ce	1.0158632
39	0x3f744b55	0.9542745
40	0x3f87cd67	1.0609559
41	0x3f87ea21	1.0618325
42	0x3f86ef61	1.0541803
43	0x3f8a2eed	1.0795571
44	0x3f887af2	1.066252
45	0x3f87660e	1.057802
46	0x3f8637be	1.0485761
47	0x3f873e99	1.0565978
48	0x3f8382c6	1.0274284
49	0x3f82b934	1.021277
50	0x3f850336	1.0391605
51	0x3f856df1	1.0424176
52	0x3f881a92	1.0633109
53	0x3f84d92d	1.0378777
54	0x3f861061	1.0473748
55	0x3f85dee9	1.0458652
56	0x3f87b544	1.0602193
57	0x3f86595f	1.0496024
58	0x3f861f89	1.0478374
59	0x3f8566d3	1.0422004
60	0x3f86716c	1.0503364
61	0x3f867a92	1.0506155
62	0x3f865902	1.0495913
63	0x3f8700fc	1.0547175
64	0x3f854bd9	1.0413772
65	0x3f863572	1.048506
66	0x3f864d9a	1.0492432
67	0x3f880a8e	1.0628221
68	0x3f860282	1.0469515
69	0x3f8c2ef5	1.095183
70	0x3f867304	1.050385
71	0x3f86ef10	1.0541706
72	0x3f87d4e2	1.0611842
73	0x3f882d10	1.0638752
74	0x3f8598ec	1.0437293
75	0x3f8675f0	1.0504742
76	0x3f85ea23	1.0462078
77	0x3f86ed82	1.0541232
78	0x3f82a466	1.020642
79	0x3f8106a6	1.0080154
80	0x3f86fcbb	1.0545877
81	0x3f852920	1.0403175
82	0x3f84556d	1.033857
83	0x3f83ac3f	1.028694
84	0x3f876e74	1.0580583
85	0x3f872481	1.0558015
86	0x3f864d6e	1.049238
87	0x3f84c44f	1.0372409
88	0x3f85a3f4	1.044066
89	0x3f879ccc	1.0594726
90	0x3f874f62	1.0571101
91	0x3f86dd24	1.0536237
92	0x3f82a93f	1.02079
93	0x3f8668bd	1.0500714
94	0x3f886ac7	1.0657586
95	0x3f87cff2	1.0610335
96	0x3f8733b4	1.0562654
97	0x3f83c4dc	1.0294452
98	0x3f8ad74b	1.0846952
99	0x3f85ae90	1.0443897
100	0x3f882d10	1.0638752
101	0x3f86c9a9	1.0530292
102	0x3f88024e	1.0625703
103	0x3f833f09	1.0253612
104	0x3f877542	1.0582659
105	0x3f85c38b	1.04503
106	0x3f85e65f	1.0460929
107	0x3f87fe94	1.0624566
108	0x3f899185	1.0747534
109	0x3f8c202d	1.0947319
110	0x3f86427c	1.048904
111	0x3f8464be	1.0343244
112	0x3f82d4e6	1.0221221
113	0x3f871dd7	1.0555981
114	0x3f78dcf5	0.97212154
115	0x3f87b8f3	1.0603317
116	0x3f87251a	1.0558197
117	0x3f8701b3	1.0547394
118	0x3f87777a	1.0583336
119	0x3f8543ba	1.0411294
120	0x3f89c0d2	1.0761969
121	0x3f85ece4	1.0462918
122	0x3f837213	1.0269188
123	0x3f846535	1.0343386
124	0x3f854700	1.0412292
125	0x3f87690b	1.0578932
126	0x3f8b7d1d	1.0897557
127	0x3f869dac	1.0516868

conv_block.9.bias f4 [128]
0	0xbd221ff4	-0.039581254
1	0xbcc7732e	-0.024346914
2	0xbd04b990	-0.03240353
3	0xbc949b66	-0.018140506
4	0xbc887d1c	-0.01666122
5	0xbcefa85d	-0.029255087
6	0xb8233790	-3.8913975e-05
7	0xbca7d901	-0.020489218
8	0xbcd42c4d	-0.02590003
9	0xbce44b3d	-0.027867908
10	0xbcd438e0	-0.025906026
11	0xbc2cc94a	-0.010546038
12	0xbd16ebff	-0.036846157
13	0xbd419d4f	-0.04726916
14	0xbd0d0683	-0.03443004
15	0xbcfcc667	-0.030856324
16	0xbd903730	-0.07041776
17	0xbca28976	-0.019840937
18	0xbc8a7ee5	-0.016906211
19	0xbc145111	-0.009052531
20	0xbc8f452d	-0.01748904
21	0xbd1480a8	-0.03625551
22	0xbc920b0d	-0.017827535
23	0xbcf351b3	-0.029702043
24	0xbd16770c	-0.036734626
25	0xbcad0fac	-0.021125637
26	0xbd73ae36	-0.059492312
27	0xbcc1218b	-0.023575565
28	0xbd207392	-0.039172716
29	0xbc9383f7	-0.018007262
30	0xbcf2c060	-0.029632747
31	0xbd07071f	-0.032965776
32	0xbd4125db	-0.047155242
33	0xbc5f6d00	-0.0136368275
34	0xbcb52461	-0.022112073
35	0xbcea59c5	-0.028607259
36	0xbd020dea	-0.03175155
37	0xbcdb5e13	-0.026778257
38	0xbd543032	-0.051803775
39	0xbde57df4	-0.11205664
40	0xbcc504d7	-0.02405016
41	0xbcbb1ca7	-0.022840811
42	0xbd0b02a8	-0.03393808
43	0xbd502519	-0.05081663
44	0xbd028d81	-0.03187323
45	0xbc8148dd	-0.015781814
46	0xbcbac1e3	-0.02279753
47	0xbc53f621	-0.0129371
48	0xbd77c1f3	-0.0604877
49	0xbd2ad15f	-0.041703578
50	0xbcca926d	-0.024728024
51	0xbd074242	-0.033022173
52	0xbcbcbe88	-0.023040071
53	0xbd047731	-0.032340232
54	0xbc477277	-0.012173287
55	0xbcbcb9ef	-0.023037879
56	0xbd068646	-0.032842897
57	0xbd0e4def	-0.034742292
58	0xbc501f8a	-0.012702832
59	0xbcd4ef85	-0.025993118
60	0xbcaa77db	-0.020809105
61	0xbc651599	-0.0139822
62	0xbbcfe2d4	-0.0063441787
63	0xbc8b317b	-0.016991368
64	0xbca15efa	-0.019698609
65	0xbcf89759	-0.030345606
66	0xbcb7210f	-0.02235463
67	0xbccca84f	-0.0249826
68	0xbc6a68df	-0.01430723
69	0xbd203534	-0.03911324
70	0xbcd419fb	-0.025891295
71	0xbc76bc62	-0.015059562
72	0xbcd5e182	-0.026108507
73	0xbcde2bf0	-0.02712056
74	0xbcb1c81a	-0.021701861
75	0xbce65464	-0.028116412
76	0xbcc35a8e	-0.02384689
77	0xbd0552ee	-0.03254979
78	0xbd3661d4	-0.04452689
79	0xbd5fdad9	-0.05465207
80	0xbba2d2e2	-0.004968987
81	0xbc9b368a	-0.018946905
82	0xbd1fbca0	-0.038998246
83	0xbd2e3d04	-0.042538658
84	0xbcc84969	-0.024449067
85	0xbc4e76c9	-0.012601563
86	0xbc179ed8	-0.00925418
87	0xbd1df223	-0.038560998
88	0xbd1054d5	-0.035237152
89	0xbb289095	-0.0025720943
90	0xbca696e6	-0.020335626
91	0xbcb77253	-0.022393381
92	0xbd58634e	-0.05282908
93	0xbd0d205c	-0.03445469
94	0xbc9bfb00	-0.019040585
95	0xbcca4637	-0.024691684
96	0xbc6e77b3	-0.014554906
97	0xbd3b7dee	-0.045774393
98	0xbd43501d	-0.047683824
99	0xbcea8bf2	-0.028631184
100	0xbcb061f9	-0.021531092
101	0xbc2a4586	-0.010392552
102	0xbcdb0a47	-0.026738299
103	0xbd3c8576	-0.046025716
104	0xbca7f549	-0.020502703
105	0xbd398e25	-0.045301575
106	0xbc895ea8	-0.016768768
107	0xbcb7fc8f	-0.022459297
108	0xbd281c94	-0.04104288
109	0xbd2587f1	-0.040412847
110	0xbcb746b3	-0.02237258
111	0xbd0d9d8b	-0.034574073
112	0xbd651a6b	-0.055933397
113	0xbc8882a8	-0.016663864
114	0xbda8a6cf	-0.08234941
115	0xbcaa7168	-0.02080603
116	0xbd015111	-0.03157145
117	0xbd10da91	-0.03536469
118	0xbcc60f5d	-0.024177248
119	0xbc9010aa	-0.017586071
120	0xbc34ee57	-0.011043153
121	0xbce3b318	-0.02779536
122	0xbd479ea9	-0.048735294
123	0xbd2e114f	-0.042496976
124	0xbccf6799	-0.025317954
125	0xbcb8b9b0	-0.02254948
126	0xbd53c364	-0.05170001
127	0xbc385c47	-0.011252469

conv_block.9.running_mean f4 [128]
0	0xc019ec00	-2.4050293
1	0xc077a181	-3.8692324
2	0xc00f59d4	-2.2398577
3	0xc0146e84	-2.3192453
4	0xc0005859	-2.0053923
5	0xc000efee	-2.0146441
6	0xc0234893	-2.5513046
7	0xc0016500	-2.0217896
8	0xc00074e5	-2.0071347
9	0xc0065ced	-2.0994217
10	0xbffc3d95	-1.9706293
11	0xc021e1a2	-2.5293965
12	0xc06b5000	-3.6767578
13	0xc064a764	-3.5727167
14	0xc0876553	-4.2311187
15	0xc04763f2	-3.1154752
16	0x407f9fce	3.9941287
17	0xc01216c6	-2.28264
18	0xc03347da	-2.8012605
19	0xc021d78d	-2.5287812
20	0xc0018439	-2.0236952
21	0xc0831f2c	-4.097555
22	0xc05b1582	-3.4231877
23	0xc074a04b	-3.8222835
24	0xbfecd55b	-1.8502611
25	0xbff7ee99	-1.9369689
26	0xc07f1f56	-3.9862876
27	0xbff1a49a	-1.8878357
28	0xc08ac6dc	-4.336775
29	0xc013c7f8	-2.3090801
30	0xc0010cd2	-2.0164075
31	0xc010898e	-2.2583957
32	0xc07252bd	-3.7863
33	0xc05f5b24	-3.4899378
34	0x4050732c	3.2570295
35	0xc00837bf	-2.1284025
36	0xc018f116	-2.3897147
37	0xc00c7ab0	-2.1949883
38	0xc08c2ede	-4.380721
39	0xbf80eebe	-1.0072858
40	0xc009c582	-2.15268
41	0xc00485c6	-2.070665
42	0xc0019860	-2.0249252
43	0x406b9e47	3.6815355
44	0xc0029f2d	-2.0409653
45	0xc0768562	-3.851891
46	0xc05c1436	-3.4387336
47	0xc0672be3	-3.6120536
48	0xc019b242	-2.401505
49	0xc01a43ba	-2.4103837
50	0xc063d028	-3.5595798
51	0xc07e28c4	-3.9712381
52	0xc0001fd7	-2.0019433
53	0xc00bc226	-2.1837249
54	0xc032eb6f	-2.7956197
55	0xc0759e00	-3.8377686
56	0xc0161a0a	-2.3453393
57	0xc00fedcb	-2.2488887
58	0xc018483c	-2.3794088
59	0xc075f66a	-3.843165
60	0xc01962dd	-2.3966591
61	0xc029a4ca	-2.650683
62	0xc01ecb61	-2.4811633
63	0xc061225d	-3.5177224
64	0xc012b64a	-2.292376
65	0xbfffaa50	-1.997385
66	0xc06ead5d	-3.7293313
67	0xc0125c9b	-2.2869022
68	0xc01b45de	-2.4261394
69	0x406635c6	3.597032
70	0xbfffcb33	-1.9983886
71	0xc018f251	-2.3897898
72	0xc00ca307	-2.1974504
73	0xc00882fb	-2.1329944
74	0xc01182d2	-2.2736096
75	0xc0852b97	-4.161571
76	0xc07d4367	-3.957239
77	0xbff25fc8	-1.893548
78	0xc07d6f1a	-3.959906
79	0xbfd3d761	-1.6550103
80	0xc03034ed	-2.7532303
81	0xc064e84a	-3.5766778
82	0xc083e716	-4.1219587
83	0xc07d0971	-3.9537013
84	0xc011de75	-2.2792027
85	0xc05c1e95	-3.4393666
86	0xc05cce23	-3.4500816
87	0xc08d3d6f	-4.413749
88	0xc0887901	-4.264771
89	0xc01c903e	-2.4463038
90	0xc0708bd8	-3.7585354
91	0xc000ad04	-2.01056
92	0xbfe818d1	-1.8132573
93	0xc00f8354	-2.2423906
94	0xbfed76e8	-1.8551912
95	0xc0086a39	-2.1314833
96	0xc014714a	-2.3194146
97	0xc0169e2b	-2.3534038
98	0x406665fe	3.599975
99	0xc01cd88a	-2.4507165
100	0xc0148d4c	-2.321124
101	0xc021f026	-2.5302825
102	0xc00b423a	-2.1759171
103	0xc06f7387	-3.7414262
104	0xc08a8029	-4.3281446
105	0xc0080c43	-2.1257484
106	0xc038833a	-2.8830094
107	0xbfeb5ba6	-1.8387344
108	0x405a49a1	3.410744
109	0x40687272	3.6319852
110	0xc06c51e4	-3.6924982
111	0xc0868183	-4.2033095
112	0xc077d93d	-3.8726342
113	0xc0725d07	-3.786928
114	0xbfd949df	-1.6975669
115	0xbff36a45	-1.9016806
116	0xc00e0416	-2.2189994
117	0xc01007b7	-2.2504709
118	0xbfe5501b	-1.7915071
119	0xc04cc72e	-3.199657
120	0xbff8645d	-1.9405628
121	0xc06de164	-3.7168818
122	0xc0076eeb	-2.116145
123	0xc0803652	-4.006631
124	0xc05f2d84	-3.487153
125	0xbffa7644	-1.9567342
126	0x4070d682	3.7630925
127	0xc0139ce8	-2.3064518

conv_block.9.running_var f4 [128]
0	0x40508b44	3.2585
1	0x40357fd5	2.8359272
2	0x403e4de1	2.9735034
3	0x4035ee91	2.842686
4	0x40193edd	2.3944619
5	0x40359902	2.8374639
6	0x403417d4	2.8139544
7	0x403713d3	2.860585
8	0x403217de	2.7827067
9	0x40368df8	2.852415
10	0x4025cc35	2.5905888
11	0x40299917	2.6499689
12	0x402ea761	2.728966
13	0x4024461a	2.5667787
14	0x404997ac	3.1498823
15	0x401eb190	2.4795876
16	0x405f2c5c	3.4870825
17	0x4032e116	2.7949882
18	0x400bba79	2.1832564
19	0x402e5ad8	2.7242947
20	0x402f3a74	2.7379427
21	0x40329c8a	2.7908044
22	0x4026a626	2.603891
23	0x4030c3b9	2.761946
24	0x403cd234	2.9503298
25	0x402f9cf7	2.7439554
26	0x4031bb06	2.77704
27	0x402b0d3f	2.6726835
28	0x405243b9	3.2853835
29	0x4035638e	2.8342013
30	0x403214fd	2.782531
31	0x4035e98a	2.842379
32	0x403d32a6	2.9562163
33	0x401e6442	2.4748693
34	0x40238f1c	2.5556097
35	0x402badb4	2.682477
36	0x40325733	2.7865722
37	0x401e9f0b	2.4784572
38	0x40456c8f	3.084751
39	0x4025bbdb	2.5895908
40	0x402e8841	2.7270663
41	0x402ec9e1	2.7310717
42	0x4034cb2f	2.8249013
43	0x4043e58a	3.060885
44	0x4039676a	2.896937
45	0x4049fd47	3.1560838
46	0x4026736e	2.6007953
47	0x40264909	2.5982077
48	0x4038fd56	2.8904624
49	0x40379882	2.8686833
50	0x402edd57	2.7322595
51	0x40326995	2.7876942
52	0x4027c7a4	2.62156
53	0x4038d9a4	2.8882837
54	0x4016a261	2.3536608
55	0x40387325	2.8820279
56	0x403b8d39	2.9304945
57	0x4030e91c	2.7642279
58	0x4029603a	2.6464982
59	0x402f2971	2.7369044
60	0x403d18c0	2.9546356
61	0x403d35bd	2.956405
62	0x401cee18	2.452032
63	0x4021a7a3	2.5258567
64	0x403fbf88	2.9960651
65	0x40317686	2.772859
66	0x402c90f6	2.6963477
67	0x402f5b94	2.7399645
68	0x40214a34	2.520154
69	0x4037e102	2.8731084
70	0x4027eee2	2.6239552
71	0x40356b0b	2.8346584
72	0x403525d2	2.8304334
73	0x403bd15d	2.9346535
74	0x402c79e9	2.6949408
75	0x405ad08a	3.4189782
76	0x4037ece9	2.8738348
77	0x40353c58	2.831808
78	0x40368f90	2.8525124
79	0x403481ad	2.8204148
80	0x4015c74a	2.3402886
81	0x401ebec1	2.4803927
82	0x405c17c1	3.4389498
83	0x403abfe3	2.9179618
84	0x402adfdd	2.6699135
85	0x401d0c81	2.4538882
86	0x4028c007	2.6367204
87	0x4044133a	3.0636735
88	0x4057b8b7	3.370649
89	0x402f2a2d	2.7369492
90	0x404bdf00	3.1854858
91	0x40165739	2.3490736
92	0x40389075	2.883817
93	0x403756ef	2.864681
94	0x40386d7d	2.8816826
95	0x40382759	2.8774016
96	0x4032d2d3	2.7941177
97	0x403395e1	2.806023
98	0x40441bad	3.0641892
99	0x40294888	2.645052
100	0x402d9d55	2.7127278
101	0x403082c9	2.7579825
102	0x40290ea5	2.6415188
103	0x40262f0f	2.5966222
104	0x40492992	3.1431623
105	0x40370363	2.8595817
106	0x40176a08	2.3658466
107	0x4036d3e1	2.856682
108	0x402faef2	2.7450528
109	0x403e06c5	2.9691632
110	0x4032b7c8	2.792467
111	0x404b8af9	3.1803572
112	0x40315460	2.7707748
113	0x402a316a	2.659266
114	0x4043c622	3.058968
115	0x403c827b	2.945464
116	0x402668e9	2.6001532
117	0x402b5634	2.6771364
118	0x402ea622	2.72889
119	0x4014caaa	2.3248696
120	0x40325f75	2.7870762
121	0x40271d4d	2.6111634
122	0x4029842a	2.6486917
123	0x405640af	3.347698
124	0x40222524	2.533517
125	0x402e1be4	2.7204523
126	0x404bc536	3.1839118
127	0x402a73cf	2.6633184
